mase_output/jsc-tiny_classification_jsc_2024-01-26/software/training_ckpts/best-v11.ckpt (torch, 10778 bytes, 14 tensors)

model.seq_blocks.0.weight f4 [16]
00000000: 83f8 fb3f fab9 e43f 8303 3c40 6b10 a340
00000010: bf95 b33f 9ffd b13f c44f 543f f2bc 4c3f
00000020: 6b6d 8f3f 6dd2 033f 345a 9f3f 8539 a43f
00000030: 8253 a53f 2815 533f d5ca 3d40 0d5b da3f
1.9685215 1.7869256 2.9377143 5.095754 1.4030074 1.3905524 0.8293421 0.7997581
1.1205267 0.5149296 1.2449403 1.2830054 1.291611 0.82454157 2.965505 1.7059036

model.seq_blocks.0.bias f4 [16]
00000000: bf84 313f f1ea a73f c09e d43f 47da 7b3f
00000010: 9cd9 ba3f 6fa5 5b3f 8d9e 553f d065 713f
00000020: 56eb 96be 1861 0f3f f3a5 de3f 13b7 b73d
00000030: 101e 04bf a9e5 383f baf3 673f 6719 ce3f
0.6934318 1.3118573 1.6610947 0.9837994 1.4597659 0.85799307 0.83445054 0.9429598
-0.29476422 0.5600753 1.7394394 0.089704655 -0.5160837 0.72225434 0.9060627 1.6101502

model.seq_blocks.0.running_mean f4 [16]
00000000: 8538 5e3c 7f3b 943a c766 8fbc cc40 acbc
00000010: e139 23bd 982b 0abd bb8c 0ebd c8ef e6bc
00000020: bb8c 0ebd 97db 9ebc ee72 4bbc 24cd 84bb
00000030: add2 cbbc 9130 9dbc 4099 3bbc e969 edbc
0.01356328 0.0011309235 -0.017505063 -0.021026991 -0.03985012 -0.03373298 -0.03480218 -0.028190508
-0.03480218 -0.019391818 -0.012417538 -0.004052775 -0.024880731 -0.019188197 -0.011450112 -0.028981166

model.seq_blocks.0.running_var f4 [16]
00000000: 3906 743f 405a 743f c555 793f 71ca 783f
00000010: 8919 743f 49cb 7a3f 6605 763f 5bc3 793f
00000020: 6605 763f b621 823f 937e 823f d0e7 823f
00000030: ba88 803f 2deb 803f 0182 7b3f 004d 6e3f
0.95321995 0.9545021 0.973965 0.971839 0.95351464 0.9796644 0.9610199 0.97563714
0.9610199 1.0166538 1.0194877 1.0226994 1.0041726 1.007177 0.98245245 0.9308624

model.seq_blocks.2.weight f4 [5, 16]
00000000: d4c0 c33e d1e0 433f bdc2 9bbf c4b8 f93d
00000010: eebd 6cbf 86bf cf3e 16c6 82be a44a ac3e
00000020: c1a4 863c 904f 713e 24ff a03e 01c9 0f3d
00000030: 1a54 853d 7065 9abe 86f7 853f 8a56 113f
00000040: 0320 673f 56d1 593f 83b3 bcbd 7520 d7bf
00000050: af03 d63e e32d 9d3e 2a7d 3dbe 8b19 10be
00000060: b3a3 a43d 4dde 373d 4066 5b3f 34f0 b1be
00000070: 28d0 3fbe b2e4 023e 07ff c6bf 3443 84bf
00000080: b8fe 9b3e 326a 0e3f 5c26 ad3f 7a20 a5c0
00000090: 8b4a 2d3f 9af4 85be 55a4 033e dae2 f1be
000000a0: 0b3f 45bd ae98 51bd 5043 893e 30cd 78bc
000000b0: 916b 2fbb bae5 383e 45bf fc3e aa1b e4bf
000000c0: 8e71 963e e8af e93e 5c26 3d3f a978 b8bf
000000d0: ca43 703e f5ac 33bf d42f 583c 4b4e 27bd
000000e0: 13d2 3ebd ca99 d4bd 901a aa3e fc93 cabd
000000f0: eabe a6be e806 cc3e c1af 9d3f e0ec a1bf
00000100: 2134 6abd a39b 993e 8e12 4f3f 22ac 43be
00000110: a19d 713e 16cf 173f 2d70 20bf 8d09 f93e
00000120: dd16 14bf 55dc 0e3d 5324 54bf e53f 583f
00000130: 5d26 a0bf aa88 943d 39c9 a8be 88d9 3ebe
0.38233054 0.7651492 -1.2168804 0.12193444 -0.9247731 0.40575808 -0.25541753 0.33650696
0.016435983 0.23565507 0.31444657 0.0351038 0.06510182 -0.30155516 1.0466163 0.56772673
0.9028322 0.85085046 -0.09213927 -1.680678 0.41799685 0.3069907 -0.18504778 -0.14072244
0.08039036 0.044889737 0.85702896 -0.34753573 -0.18731749 0.12782553 -1.5546578 -1.0333009
0.30467772 0.5563079 1.3527331 -5.1602144 0.6769187 -0.2616318 0.12855656 -0.47243387
-0.048155826 -0.051170997 0.26809168 -0.015185639 -0.0026766995 0.18056384 0.49364677 -1.7820942
0.2938351 0.45642018 0.73886657 -1.4411823 0.2346336 -0.70185786 0.013194997 -0.04084615
-0.04658706 -0.103808954 0.3322339 -0.09891507 -0.3256753 0.3984902 1.2319261 -1.2650414
-0.05717862 0.30001554 0.8088769 -0.19108632 0.23595287 0.59300363 -0.62671167 0.486401
-0.57847387 0.034878094 -0.82867926 0.84472495 -1.2511708 0.07252629 -0.3296602 -0.18637669

model.seq_blocks.2.bias f4 [5]
00000000: 091c edbe 4c7c 37be 450d bc3f 1e01 373f
00000010: 2e8e 283f
-0.46310452 -0.17918509 1.469155 0.7148608 0.6584195

exp_avg f4 [16]
00000000: 3415 66bb 4303 223b 7575 5cbb 2ba0 c0bb
00000010: 14ec 033b 6d60 593b 91f4 f4ba 6635 2aba
00000020: c6e8 0ebb dc92 0e3b 6457 cb3b 2ce1 83ba
00000030: c796 3cba 8701 69bb 4e38 a4ba 3eee c539
-0.0035107853 0.0024721182 -0.0033639346 -0.0058784685 0.0020129727 0.0033169047 -0.0018688609 -0.00064929423
-0.0021806224 0.0021755015 0.006205486 -0.0010061613 -0.00071940984 -0.003555389 -0.0012528987 0.00037752272

exp_avg_sq f4 [16]
00000000: f05f 9439 ba2f b738 ec7d f33a 137b dc39
00000010: b296 843a 5713 8a39 9d93 e238 3ae7 da39
00000020: ff5f 6938 c6f7 3038 1794 093a 992a 3439
00000030: 9b94 8539 9382 1939 9a82 7c3a 501c 9c3a
0.0002830024 8.73501e-05 0.0018576956 0.00042053367 0.0010115711 0.0002633582 0.00010804015 0.00041752477
5.5640932e-05 4.2192427e-05 0.00052482024 0.00017182007 0.00025478457 0.0001463986 0.0009632498 0.0011910293

exp_avg f4 [16]
00000000: f5cf 41bb 47f9 cc3b 4694 22bc d316 263d
00000010: 6763 5bbc f6ab 593c dd2c 27bc 2b38 453c
00000020: a354 1ebb d61a 6c3b 9b88 22bc 35e3 ee3a
00000030: de73 4139 be35 a5bb a8e2 e93a 9677 8b3c
-0.0029573415 0.006255302 -0.009923046 0.04054911 -0.013390399 0.013285628 -0.010203567 0.012037317
-0.0024159334 0.0036026738 -0.009920265 0.0018225672 0.00018449078 -0.005041807 0.0017844038 0.017024796

exp_avg_sq f4 [16]
00000000: afd6 9339 8a24 9839 b707 1f3b b440 123d
00000010: f34d da3a 57ea 483a 7480 9339 c74d 663a
00000020: feb9 4c38 0615 8338 d585 993a dc8d 5639
00000030: 2891 9839 9bae 6439 d7df d53a a782 743b
0.00028197977 0.00029018923 0.0024266073 0.035706237 0.0016655311 0.0007664314 0.0002813373 0.00087853934
4.881061e-05 6.250483e-05 0.0011712859 0.00020461477 0.0002909985 0.0002180882 0.001631732 0.003730932

exp_avg f4 [5, 16]
00000000: fa3c 903b 1c97 b53c 3eb5 973c 1d14 ae3c
00000010: ae71 803c f9fc 043c 24bc 403c 44eb 483c
00000020: 812f 7d3b 2cb2 013c 3f15 be3c 223b 283c
00000030: d82a ce3b b2bf 3b3c e0f9 8a3c 533a 913c
00000040: dd93 52bc ed23 ae3b 36ff a7ba 8cb3 7cb9
00000050: 395a 273b a53c 933a 3ae8 ee3a 93db af3b
00000060: 59fa 7e3a 9530 6b3b d68d 183c c722 053c
00000070: 2283 833b d0af be3b 7770 aaba d8e7 333b
00000080: ecab 523c 34c5 afbc 1d20 85bc 32a1 1739
00000090: a28c 24bc 1fad 55bb 633a 28ba 2a27 81bb
000000a0: c4b5 8d3a 6da6 a2bb d762 81bc 5c26 d3bb
000000b0: 1642 70bb 26dc d3bb f041 e1bb 77ee cabb
000000c0: 0ff6 1cbc 07c0 28bc 0888 2cbc 7938 07bc
000000d0: 7916 3cbc 2761 89bb ee60 45bc 4907 3cbc
000000e0: d5e9 c4bb a27f c9bb 1e40 8fbc f194 c1bb
000000f0: 6520 51bb 328d 01bc 64f8 13bc eb03 3fbc
00000100: 8b05 773b 5c06 d23c d284 023d 691c b43c
00000110: c523 d63c 64ad 6c3c ec13 2a3c bde5 2b3c
00000120: ba83 6f3b 22cc bc3b 04b0 923c 1218 413a
00000130: 4bf3 b63a 3eaf c33b ff31 b83c 4867 db3c
0.0044018 0.022166781 0.01851904 0.021249825 0.015679207 0.008116954 0.011763606 0.012263123
0.003863305 0.007916015 0.02320349 0.010268005 0.0062917285 0.011459278 0.016964853 0.017728006
-0.012852636 0.0053143413 -0.0012817148 -0.00024099479 0.0025535955 0.0011233283 0.0018227168 0.0053667515
0.0009726636 0.0035887111 0.00931116 0.008125967 0.004013435 0.0058192983 -0.0013003488 0.0027451422
0.012858372 -0.021456338 -0.016250664 0.00014460532 -0.010043295 -0.003260441 -0.00064173917 -0.0039414363
0.0010811617 -0.004963687 -0.0157942 -0.006443782 -0.0036660484 -0.0064654527 -0.0068743154 -0.006192978
-0.009580149 -0.010299689 -0.010530479 -0.00825321 -0.011479967 -0.0041924897 -0.012047036 -0.011476346
-0.0060093203 -0.006149248 -0.017486628 -0.005907648 -0.0031910178 -0.007907199 -0.009031389 -0.011658649
0.0037692513 0.025637798 0.03186495 0.021986203 0.026140103 0.014445636 0.010380726 0.010491786
0.003654702 0.005761639 0.017906196 0.00073659525 0.0013958005 0.005971818 0.022484777 0.026782647

exp_avg_sq f4 [5, 16]
00000000: 1e40 e23a 3f18 843b 0aac 053c 77ab 903c
00000010: 885f 763b 87c1 0c3b c6f3 d73a ca30 0b3b
00000020: 22a5 0e3a 3f17 513a 2906 ca3b 13f0 a63a
00000030: 2e91 f239 f288 c73a 8afe db3b d60a 053c
00000040: 189f 943b 7c6f a13a 59ea 2239 f4b4 a935
00000050: ed5a ba39 6bc6 5038 c303 983a 544e bc3a
00000060: 9d99 e439 1e89 063a a14d 823b 3f4d 863a
00000070: 5322 9a39 6938 923a 01d8 1d38 bce3 8a3a
00000080: 1815 b83b fb2f e33b 3f79 203c d51d 193a
00000090: 1105 843b ad52 e039 0cb4 9e3a 4fbf 843a
000000a0: aeb8 ba39 db98 b539 83b3 6f3b 55e1 fc39
000000b0: be16 0939 03ee 213a fc22 ae3b f18e fd3a
000000c0: f5dd 9f3b 8b1b 9f3b 1b9a bd3b 3941 0e3a
000000d0: f406 373b f238 b139 a98f 8f3a 8575 713a
000000e0: bf13 b439 47d6 a439 6a6a 493b 1515 fd39
000000f0: 7490 0139 1993 1d3a d9d6 4f3b f485 db3a
00000100: 3362 2f3a da83 8b3b cfbe 6c3c 05d2 df3c
00000110: 24fb ab3b 4600 423b fff1 113a d567 293a
00000120: a255 ed38 8c02 8839 76ee 1c3b c6b5 8c39
00000130: 938a a338 041d e339 6e1f 243c 518c d73b
0.001726154 0.0040312107 0.008158693 0.017659886 0.0037593562 0.0021477656 0.0016475848 0.0021238797
0.0005441477 0.0007976181 0.006165285 0.0012736343 0.00046266004 0.0015223308 0.006713693 0.008120259
0.004535567 0.001231655 0.00015536825 1.2644145e-06 0.0003554443 4.9775856e-05 0.0011597801 0.0014366605
0.00043602 0.00051321264 0.0039765392 0.001024641 0.00029398742 0.0011155728 3.7632886e-05 0.0010596435
0.005617749 0.00693321 0.009794532 0.0005840932 0.0040289243 0.00042786208 0.0012108102 0.0010127815
0.00035614282 0.00034636896 0.0036575503 0.0004823307 0.0001307381 0.0006177129 0.005314229 0.0019344968
0.0048787543 0.0048555783 0.005786193 0.0005426589 0.0027927728 0.00033802498 0.0010952848 0.0009210932
0.00034346987 0.00031440167 0.0030733594 0.00048271628 0.00012356212 0.0006010994 0.0031713753 0.0016748295
0.0006690353 0.0042576613 0.014449789 0.027321825 0.005248444 0.0029602214 0.0005567371 0.00064623106
0.00011316991 0.0002594184 0.0023945845 0.00026838313 7.798257e-05 0.00043318432 0.010017259 0.0065780063

exp_avg f4 [5]
00000000: 6ae2 323c 2fe3 2cba 5cfd a0bb 1909 07bc
00000010: 211f 363c
0.010918239 -0.0006595132 -0.0049130153 -0.008241915 0.01111582

exp_avg_sq f4 [5]
00000000: 3e54 823a bc0c 3a3a 71ac 1b3b ac3f dc3a
00000010: 7d7f 5e3a
0.0009943319 0.00070972345 0.0023753906 0.0016803644 0.0008487625
