mase_output/jsc-tiny_classification_jsc_2024-01-26/software/training_ckpts/best.ckpt (torch, 10778 bytes, 14 tensors)

model.seq_blocks.0.weight f4 [16]
0	0x3f83af04	1.0287786
1	0x3f802c70	1.0013561
2	0x3f8caac9	1.098962
3	0x3f8b3e14	1.087832
4	0x3f8c0040	1.0937576
5	0x3f8c2daf	1.0951442
6	0x3f84751b	1.0348238
7	0x3f8af30b	1.0855421
8	0x3f819a3b	1.0125192
9	0x3f82b9c5	1.0212942
10	0x3f717c2c	0.94330096
11	0x3f6d358b	0.92659825
12	0x3f6a208b	0.91455907
13	0x3f7d03fd	0.9883421
14	0x3f8b8ddf	1.0902671
15	0x3f75f047	0.9606976

model.seq_blocks.0.bias f4 [16]
0	0xbd315caa	-0.043301262
1	0xbba37c52	-0.0049891854
2	0x3dac18bc	0.08403155
3	0x3dcf2152	0.10113777
4	0x3d85b805	0.065292396
5	0x3dbe3639	0.09287686
6	0x3d994ba4	0.074851304
7	0x3dc2ddab	0.09514936
8	0xbb829c75	-0.0039859363
9	0x3d95e0db	0.073182784
10	0x3c110ba4	0.008852873
11	0xbd74ab1d	-0.0597335
12	0xbdb41ab8	-0.08794159
13	0xbcaefb6d	-0.021360124
14	0x3dc54801	0.09632874
15	0xbd7a08c1	-0.061043505

model.seq_blocks.0.running_mean f4 [16]
0	0xbbf107b0	-0.0073556527
1	0x3c22f435	0.009945919
2	0x3c70dc2e	0.014700932
3	0x3bfcd691	0.007716008
4	0x3b8429f3	0.004033321
5	0x3be10623	0.0068671866
6	0xbcd67e87	-0.02618338
7	0xbc22bb08	-0.009932287
8	0xbcd67e87	-0.02618338
9	0xbcdee4ad	-0.02720865
10	0xbce773b8	-0.028253421
11	0xbce7a5f7	-0.02827738
12	0xbd074dd8	-0.033033222
13	0xbccb3fbf	-0.02481067
14	0x3c4e33af	0.0125855645
15	0x3b7e622b	0.0038815837

model.seq_blocks.0.running_var f4 [16]
0	0x3f7b754f	0.98225874
1	0x3f7e2d0c	0.99287486
2	0x3f7f4dc2	0.99728024
3	0x3f833399	1.0250121
4	0x3f7fa25b	0.9985711
5	0x3f82131b	1.016208
6	0x3f8522f1	1.0401288
7	0x3f855bcc	1.0418639
8	0x3f8522f1	1.0401288
9	0x3f81e0cd	1.0146729
10	0x3f80d011	1.0063497
11	0x3f803a33	1.0017761
12	0x3f842e4f	1.0326632
13	0x3f819eba	1.0126565
14	0x3f7b69f6	0.9820856
15	0x3f82da20	1.0222816

model.seq_blocks.2.weight f4 [5, 16]
0	0xbd67a901	-0.05655766
1	0x3e6feed4	0.2343095
2	0xbe0aa8d7	-0.1354097
3	0xbe01029d	-0.12598653
4	0xbca6a3ac	-0.020341717
5	0x3e069a07	0.13144694
6	0x3da22bd5	0.079185165
7	0x3e93410c	0.28760564
8	0x3d7907f9	0.06079862
9	0x3e2c0e24	0.16802269
10	0x3cd9ea7b	0.026601067
11	0x3d44eb9c	0.048076257
12	0xbe0d81ce	-0.13819048
13	0xbd8ba658	-0.06818837
14	0xbcd4515a	-0.025917698
15	0x3de3f34f	0.11130392
16	0x3e441945	0.19150265
17	0x3d6fce6d	0.058546472
18	0xbe8351ac	-0.25648248
19	0xbe379afe	-0.17930219
20	0x3bf066a2	0.0073364535
21	0x3e06fefa	0.13183203
22	0xbd18fb57	-0.03734907
23	0x3e590e4a	0.21196857
24	0xbcd960d1	-0.026535423
25	0x3d2e1568	0.042500883
26	0x3e7a0ead	0.24419661
27	0xbe25e0e5	-0.16199072
28	0xbe0fbec5	-0.14037617
29	0xbadb0655	-0.0016710261
30	0xbe3f09f8	-0.18656147
31	0x3e01cc8b	0.12675683
32	0xbda26613	-0.07929625
33	0xbcfff6c1	-0.031245591
34	0xbe4dcb6b	-0.20097129
35	0xbea51436	-0.32241982
36	0xbe49bbfb	-0.19700615
37	0x3e109f15	0.14123185
38	0x3dd21ae4	0.10259035
39	0x3d82b438	0.0638203
40	0x3b17c6b9	0.002315922
41	0xbe320b05	-0.17387016
42	0x3d2a1a00	0.0415287
43	0xbe804a41	-0.2505665
44	0xbe6b7529	-0.22993912
45	0xbe39f884	-0.18161207
46	0x3dff0836	0.12452738
47	0x3d74fda7	0.059812214
48	0xbdf23e34	-0.118282706
49	0xbd91e8ca	-0.07124479
50	0x3dbd8e1a	0.09255619
51	0x3e386c22	0.1801
52	0x3d1312b9	0.035906527
53	0xbce45fcf	-0.027877716
54	0x3e12b100	0.14325333
55	0xbe3de849	-0.18545641
56	0x3cc12eb8	0.023581848
57	0xbe733210	-0.23749566
58	0xbe5e43bc	-0.21705526
59	0xbe2e526c	-0.17023629
60	0x3d91c780	0.0711813
61	0x3d639f0d	0.055571605
62	0xbe5b1487	-0.2139455
63	0x3c68f613	0.014218825
64	0x3d34a8cf	0.0441063
65	0x3d17a7d9	0.037025306
66	0x3dcde076	0.10052578
67	0x3e18e045	0.14929302
68	0x3e7a56d8	0.24447191
69	0x3ea8ecc6	0.32993144
70	0xbe63303d	-0.2218637
71	0xbde12d4b	-0.10994967
72	0x3d963e33	0.07336082
73	0x3e03d12d	0.12872763
74	0x3e070feb	0.13189666
75	0x3e10b694	0.14132148
76	0xbcdd07de	-0.02698129
77	0xbe8adc1e	-0.2712106
78	0x3de321df	0.11090445
79	0xbdbf4cfc	-0.093408555

model.seq_blocks.2.bias f4 [5]
0	0xbe0c4ccb	-0.13701169
1	0x3e2b9e40	0.16759586
2	0x3e906711	0.28203633
3	0xbe9f7d0b	-0.31150088
4	0xbcc72a29	-0.024312096

exp_avg f4 [16]
0	0xbc06fb01	-0.008238555
1	0xbbdef228	-0.0068037696
2	0xbbb99663	-0.0056636794
3	0xbbd66d59	-0.006543797
4	0xbc23c849	-0.009996482
5	0xbc8c0813	-0.017093694
6	0xbb1fb22b	-0.002436767
7	0xbc771721	-0.015081198
8	0xbafe8b08	-0.0019420097
9	0xbc485526	-0.012227332
10	0xb58f15f9	-1.0660725e-06
11	0x3914d9ff	0.0001419559
12	0x3c2b22ec	0.010445338
13	0x3b948bb2	0.0045332545
14	0xbbaa4231	-0.005195879
15	0xbbf1354c	-0.00736109

exp_avg_sq f4 [16]
0	0x38f80adf	0.000118275864
1	0x383dc963	4.5248667e-05
2	0x388a5f66	6.598122e-05
3	0x38e4dcea	0.00010913036
4	0x394534eb	0.00018807098
5	0x39d80d01	0.0004120842
6	0x3794f191	1.7755463e-05
7	0x39931878	0.00028056256
8	0x36983b6c	4.5368706e-06
9	0x3916f5d2	0.0001439669
10	0x379b60aa	1.8522453e-05
11	0x37b62626	2.1713855e-05
12	0x38f55e6b	0.00011700097
13	0x37e3be18	2.7149028e-05
14	0x3847a298	4.7596724e-05
15	0x382e28e1	4.1522904e-05

exp_avg f4 [16]
0	0x394679a1	0.00018928062
1	0xbc181c1d	-0.0092840465
2	0xbbe650cd	-0.007028675
3	0xbc801af7	-0.015637858
4	0xbb860a40	-0.0040905774
5	0xbc296e9b	-0.010341312
6	0xbbb46795	-0.005505512
7	0xbc99f6d1	-0.018794449
8	0xbb4122bc	-0.0029470166
9	0xbc24229d	-0.010018018
10	0xbb46c8bb	-0.0030332047
11	0x3a9cee08	0.0011972794
12	0x3c256fbb	0.010097439
13	0x3b63267f	0.0034660397
14	0xbca7c46a	-0.0204794
15	0xbb089b9f	-0.002084471

exp_avg_sq f4 [16]
0	0x37d25958	2.5075555e-05
1	0x38bd9a48	9.0409594e-05
2	0x389d5187	7.501529e-05
3	0x398a85be	0.00026421057
4	0x386a1103	5.580579e-05
5	0x39141b15	0.00014124469
6	0x38494d68	4.7994225e-05
7	0x39cd63f1	0.0003917511
8	0x36ed0cd9	7.064646e-06
9	0x38dd208a	0.00010544162
10	0x37f233e1	2.8872806e-05
11	0x379c2918	1.8615785e-05
12	0x38f4ec5a	0.000116788506
13	0x37bedfdb	2.2754006e-05
14	0x39dc3bb4	0.00042006152
15	0x37143e31	8.8359675e-06

exp_avg f4 [5, 16]
0	0x3c085e4b	0.008323262
1	0xbd18240c	-0.037143752
2	0xbc97263e	-0.018450852
3	0xbc8d0d4c	-0.017218255
4	0xbccea265	-0.02522392
5	0xbcbeec4c	-0.023306035
6	0xbd173c2c	-0.03692262
7	0xbd79bacb	-0.060969155
8	0xbd039eca	-0.032133855
9	0xbdb28989	-0.08717639
10	0xbda40485	-0.080086745
11	0xbd856009	-0.06512458
12	0xbd82bfc8	-0.063842356
13	0xbd890220	-0.066898584
14	0xbccabb89	-0.024747627
15	0xbdc0c84a	-0.09413202
16	0xbd7189ea	-0.058969416
17	0x3cdd65f8	0.027026162
18	0x3c6b0eb0	0.0143467635
19	0x3ad9549a	0.0016580999
20	0x3c394a52	0.011309223
21	0x3b7eb84f	0.003886718
22	0xbb71122b	-0.003678451
23	0xbbd491ad	-0.0064870925
24	0xbb5d6f42	-0.0033788239
25	0xba6480e1	-0.0008716714
26	0xb95eb0dd	-0.00021237457
27	0xbc3e2ec5	-0.01160783
28	0xb9e9d63d	-0.00044600843
29	0xbc221444	-0.009892527
30	0x3ca37bfa	0.019956578
31	0x3cd7bc08	0.026334777
32	0xbcb5c161	-0.022186937
33	0xbc78fa55	-0.015196403
34	0x39120cc6	0.00013928403
35	0x3b8d02c9	0.0043033105
36	0x39a56f99	0.000315544
37	0x3b2506bf	0.0025181023
38	0xbba0210d	-0.0048867525
39	0x3b5ade67	0.0033396722
40	0xbb887f0a	-0.004165535
41	0xba630c9a	-0.00086612406
42	0xbaf639c1	-0.0018785523
43	0xb9a3e828	-0.00031262753
44	0x383ab8c2	4.4517925e-05
45	0x3a908f23	0.0011028986
46	0xba90df89	-0.0011052947
47	0x3bfd73d1	0.0077347537
48	0x36878879	4.039201e-06
49	0x397ecf7b	0.0002430062
50	0x3a072eb9	0.00051568035
51	0x3a2a59a6	0.0006498344
52	0x3a08772c	0.0005205746
53	0x39b57d76	0.00034616486
54	0x3a207372	0.00061207183
55	0x39216daf	0.00015395017
56	0x3a17d48f	0.00057918666
57	0x3795201a	1.7777133e-05
58	0x378cdc21	1.6791806e-05
59	0x35c02d88	1.4318366e-06
60	0x388ab0a7	6.613257e-05
61	0x36803e62	3.8219596e-06
62	0x39cb6c2b	0.0003879977
63	0x3996e601	0.00028781596
64	0x3d0d47ff	0.03449249
65	0xbb3c8229	-0.0028764105
66	0xbd66620b	-0.056245845
67	0xbd7f2ada	-0.062296726
68	0xbd44ed28	-0.048077732
69	0xbd5901e1	-0.052980307
70	0xba9ceb3d	-0.0011971962
71	0xbba87d6c	-0.0051419046
72	0xbaa9d98b	-0.001295851
73	0x3c271ab4	0.010199238
74	0x3c8ac380	0.016938925
75	0x3c0ec580	0.00871408
76	0x3c01d928	0.007925309
77	0xb8d6cc77	-0.000102424
78	0xbd2023eb	-0.039096754
79	0x3b40761d	0.0029367276

exp_avg_sq f4 [5, 16]
0	0x392efc83	0.00016688001
1	0x3aa93e33	0.0012912214
2	0x39af7a0a	0.00033469527
3	0x39a1bfc5	0.00030851192
4	0x3a27bc9e	0.00063986506
5	0x3a236a0a	0.00062337576
6	0x3ac9914c	0.0015378385
7	0x3b820c3f	0.003968745
8	0x3a9e049f	0.001205582
9	0x3beed587	0.007288638
10	0x3bcc5cf3	0.0062366663
11	0x3b837807	0.004012111
12	0x3b7e8e48	0.003884213
13	0x3b869bd2	0.0041079307
14	0x3a1fb6a4	0.0006092584
15	0x3c0255f2	0.007955061
16	0x3b9b227d	0.004734336
17	0x3a3c7b64	0.00071900175
18	0x398168c3	0.0002468285
19	0x37aedffe	2.084672e-05
20	0x39813f8f	0.00024652152
21	0x38ecbaf0	0.00011288177
22	0x3a16f80f	0.00057590095
23	0x3a502db7	0.00079413824
24	0x3a0259f9	0.00049725134
25	0x39da05bc	0.00041584473
26	0x39a2ce97	0.0003105297
27	0x3a1c5b54	0.00059645367
28	0x396d5d1f	0.00022636772
29	0x3a269266	0.00063542125
30	0x39df24b6	0.00042561226
31	0x3a5681e2	0.0008182806
32	0x3a2f6a83	0.00066915917
33	0x399a812e	0.00029469415
34	0x38070b0e	3.2196804e-05
35	0x37bebf72	2.2738914e-05
36	0x37ffd0bf	3.0495574e-05
37	0x37690116	1.3888135e-05
38	0x39953886	0.00028461608
39	0x390fd225	0.00013715828
40	0x3980c4f9	0.0002456082
41	0x3764fdf4	1.3648987e-05
42	0x372ef4a7	1.0428171e-05
43	0x360c6238	2.0918797e-06
44	0x376d8a96	1.4158568e-05
45	0x37444289	1.1698002e-05
46	0x3876cd0f	5.8841946e-05
47	0x38bc42b0	8.97696e-05
48	0x33883f0c	6.344462e-08
49	0x345f1a82	2.0778137e-07
50	0x360b1b0f	2.0728364e-06
51	0x3668c9d9	3.4688185e-06
52	0x35ae5378	1.2988303e-06
53	0x35343158	6.712703e-07
54	0x3694fcab	4.440158e-06
55	0x3476c9cc	2.2983949e-07
56	0x3686f3ec	4.0219074e-06
57	0x31097307	2.000151e-09
58	0x314587b9	2.8744422e-09
59	0x3107cb3d	1.9760613e-09
60	0x32e621ef	2.6790955e-08
61	0x317f38e9	3.7139734e-09
62	0x35b3c6c4	1.3394388e-06
63	0x34c8c90a	3.7399178e-07
64	0x3ab80079	0.0014038227
65	0x397d11ae	0.00024134546
66	0x3bb38494	0.005478451
67	0x3be150fd	0.0068761096
68	0x3b86845c	0.004105134
69	0x3ba3f39a	0.005003405
70	0x39066831	0.0001281805
71	0x394d9642	0.00019606299
72	0x38dd6abe	0.000105579835
73	0x399f85db	0.00030426573
74	0x39fbc2f5	0.00048019705
75	0x3989d0e5	0.00026286315
76	0x391e3858	0.00015089044
77	0x391be474	0.00014867057
78	0x3b5255d1	0.0032094608
79	0x39fb40ea	0.00047922815

exp_avg f4 [5]
0	0xbd73e4ab	-0.059544247
1	0x3c8e9d03	0.017408853
2	0xbd5ecf20	-0.05439675
3	0x39dd3092	0.00042188592
4	0x3cb497e9	0.022045093

exp_avg_sq f4 [5]
0	0x3b655d93	0.0034998402
1	0x3a25cbde	0.0006324629
2	0x3b4b3765	0.003100836
3	0x35674dfb	8.616768e-07
4	0x3a809dfb	0.0009812707
