mase_output/jsc-tiny_classification_jsc_2024-01-26/software/training_ckpts/best-v12.ckpt (torch, 10778 bytes, 14 tensors)

model.seq_blocks.0.weight f4 [16]
000000 5e 51 00 40 2a 52 9a 3f 42 47 70 40 95 08 c3 40
       2.0049663 1.2056324 3.7543492 6.0947976
000010 1e 80 d2 3f 6f 7e df 3f 9b b1 50 3f c8 df 30 3f
       1.6445348 1.746046 0.81521004 0.69091463
000020 e8 2d a9 3f ec 0b 44 3f da 15 9e 3f 04 9e a7 3f
       1.3217134 0.7658069 1.2350419 1.3095098
000030 bd 05 ad 3f 0e 39 71 3f b1 fb 56 40 0e e8 df 3f
       1.3517376 0.94227684 3.359112 1.7492692

model.seq_blocks.0.bias f4 [16]
000000 dc 80 3a 3f 21 ed cf 3f 5b 35 cf 3f 9c fd 85 3f
       0.72852874 1.6244241 1.6188158 1.046802
000010 26 2b d7 3f 0d f0 7e 3f e7 e3 8f 3f 4e 8e 61 3f
       1.6810043 0.9958504 1.1241425 0.88107765
000020 50 28 80 be 20 c9 9f 3f 55 9f e4 3f 95 0b 98 3e
       -0.25030756 1.2483253 1.7861124 0.29696336
000030 a3 1a ee be 9c ae 47 3f dd fa a3 3e a0 02 e4 3f
       -0.46504697 0.7800081 0.3202733 1.7813301

model.seq_blocks.0.running_mean f4 [16]
000000 14 23 71 bc e0 58 0e 3d c7 e4 d0 bb 30 4a 5e bc
       -0.014717836 0.034752727 -0.0063749286 -0.013567492
000010 71 f0 8d bb ef 79 7a bb ef 8f 7e ba 56 7a 51 3b
       -0.0043316414 -0.003821965 -0.0009710779 0.0031963787
000020 ef 8f 7e ba 67 e1 b7 3c ca fe a2 3c ec b2 34 3c
       -0.0009710779 0.022446347 0.019896884 0.011028986
000030 9b 9c 9e 3c eb 87 48 3c 30 7a 0b bc 61 0c f3 bb
       0.019361785 0.012239437 -0.0085130185 -0.007417247

model.seq_blocks.0.running_var f4 [16]
000000 e0 36 6f 3f d8 f9 61 3f 12 e5 78 3f 0c 8c 74 3f
       0.9344311 0.88271856 0.97224534 0.95526195
000010 5e 48 7f 3f cd b0 80 3f 09 4f 7c 3f 74 79 7e 3f
       0.997198 1.0053955 0.985581 0.9940407
000020 09 4f 7c 3f 29 81 7d 3f cb ca 7c 3f ff c6 80 3f
       0.985581 0.9902521 0.9874694 1.0060729
000030 3a 3e 7d 3f 34 4a 80 3f 90 5c 79 3f e6 e6 76 3f
       0.98923075 1.0022645 0.97406864 0.96446073

model.seq_blocks.2.weight f4 [5, 16]
000000 16 50 13 3f e6 5e 87 3f 93 28 15 bf 69 cb ed bd
       0.57544076 1.0575836 -0.58265036 -0.11611063
000010 3a 4c 9f bf 5c 08 f5 3e 05 8f 2e be 43 f1 d2 3d
       -1.2445138 0.4785794 -0.17046745 0.10299923
000020 39 b0 aa 3e 9b ec 0c 3f f7 10 58 3e a0 e8 59 bd
       0.33337572 0.5504853 0.21100222 -0.053200364
000030 aa 67 79 bd 1c 30 06 be 2e 33 93 3f 17 b5 18 3f
       -0.060889877 -0.1310429 1.1499994 0.5965132
000040 6c 21 80 3f ec 1b 7a 3f f6 73 79 3e a6 79 c6 bf
       1.00102 0.97698855 0.24360642 -1.5505874
000050 2f 73 ac 3e a9 49 0f bf c3 c2 80 be 76 23 c9 be
       0.33681628 -0.5597177 -0.2514859 -0.39284867
000060 d4 48 f7 3e f0 96 86 3e 8d e7 5d 3f fc e1 ee be
       0.4829775 0.2628703 0.86681443 -0.46656787
000070 07 e0 b0 be d9 46 d4 3e ba 2d 83 c0 f5 4c 7a bf
       -0.3454592 0.41460302 -4.099332 -0.9777368
000080 c1 8d e4 3d a1 67 8c 3e 40 62 f6 3f 1d b9 d2 c0
       0.1115985 0.27422813 1.9248734 -6.585097
000090 bb e4 5d 3f 94 6d 87 bf e2 d5 96 3e 82 9b d8 be
       0.8667714 -1.0580316 0.29460055 -0.42306143
0000a0 79 1e 2c 3e ec d9 19 bf d4 07 ae 3e c6 a8 2e 3d
       0.168085 -0.6009815 0.33990347 0.042641424
0000b0 19 44 42 bc cc 2b ba 3e d1 95 05 3c 91 cc f2 bf
       -0.011857056 0.3636154 0.008153395 -1.8968679
0000c0 d9 fa 0e 3e 50 32 80 3e be bf a1 3f 6f d1 e2 bf
       0.13962878 0.25038385 1.263664 -1.7720164
0000d0 54 4f ac 3d 26 01 3a bf ba fa 66 3e 5f 2c fb bd
       0.08413568 -0.72658 0.22556582 -0.122643225
0000e0 7a 6a 44 3e b4 02 d8 be e4 ac d7 3e 51 a1 99 bd
       0.19181243 -0.42189562 0.42124093 -0.07501472
0000f0 01 c2 c1 be 5e 72 04 3f c4 81 b1 3f 25 45 aa bf
       -0.37843326 0.5173701 1.3867726 -1.3302351
000100 41 89 fb bd 56 93 63 3e fa 75 50 3f 10 1f b1 be
       -0.122820385 0.22224173 0.8143002 -0.3459401
000110 be 04 66 3e 23 4c 15 3f e8 58 6f bf 35 c8 b5 3e
       0.22462747 0.583193 -0.93495035 0.35504308
000120 61 6e 80 be 59 a2 9f 3e eb 2c 6f bf 85 f8 5f 3f
       -0.25084212 0.3117855 -0.93427914 0.87488586
000130 d7 4a a7 bf 59 44 be bc 1c 6b dc bd c6 7e 4f be
       -1.3069714 -0.02322595 -0.10762617 -0.20263204

model.seq_blocks.2.bias f4 [5]
000000 ca b3 e0 bf b1 07 82 bf 5c 3d 0d 40 9f 31 a0 3f
       -1.7554867 -1.0158597 2.20687 1.2515143
000010 1b 9f 70 3f
       0.93992776

exp_avg f4 [16]
000000 80 f5 ea 3a d1 ec c8 b9 67 b0 22 3b 28 3a c7 ba
       0.0017925948 -0.00038323415 0.0024824382 -0.0015199827
000010 36 3b ef 3a 79 44 13 bb b8 b0 2d 3b 38 17 4b 3a
       0.0018251899 -0.0022471233 0.0026503038 0.00077472953
000020 1f 81 59 b9 89 ca 79 bb 0b c3 2b ba 1f 89 4d 3b
       -0.00020742834 -0.0038115105 -0.0006552196 0.0031362248
000030 0b 44 29 bb d9 30 1b ba 71 41 e6 ba 3f f2 9f b7
       -0.002582791 -0.00059200596 -0.001756711 -1.9067082e-05

exp_avg_sq f4 [16]
000000 84 09 88 39 00 e9 00 39 73 d4 ed 39 d8 60 a5 39
       0.0002594703 0.0001229383 0.0004536245 0.00031543407
000010 a2 c9 38 3a aa bb 0f 39 30 0a 51 39 da 5c 2c 39
       0.00070490886 0.00013707453 0.00019935588 0.00016437788
000020 35 7c 48 38 93 43 9e 39 47 ef a2 39 fd 05 ea 38
       4.7799393e-05 0.00030186455 0.00031077323 0.00011159105
000030 f2 5b fd 38 a9 0f 98 38 8e f4 c4 39 7b ae 2a 3a
       0.00012081106 7.250842e-05 0.0003756624 0.0006510985

exp_avg f4 [16]
000000 aa b5 63 bb 24 2f 4c bb 2d 9e 12 bc b1 88 a1 3c
       -0.0034745731 -0.0031156028 -0.008948845 0.0197185
000010 c3 57 8c bb 74 c7 32 3c df 4e c0 bb 9e 41 c5 3b
       -0.004282923 0.010911811 -0.005868777 0.006019785
000020 42 c5 d7 ba c2 32 75 3b 7f d9 27 bc 34 1d 96 3b
       -0.0016461986 0.0037414287 -0.010244726 0.004581118
000030 0f ad c5 ba 4a 41 53 ba e8 39 04 bc 9d f9 2c 3c
       -0.0015081483 -0.000805874 -0.008070447 0.010557559

exp_avg_sq f4 [16]
000000 3f 52 59 39 a5 7f a3 39 d4 ac 92 3a a9 13 e3 3c
       0.00020725372 0.00031184885 0.0011190423 0.027719336
000010 6b cf c5 3a c8 f0 85 3a e0 f0 dd 39 ec 33 bc 39
       0.0015091723 0.0010218853 0.0004233187 0.0003589684
000020 c9 a7 15 38 9e 35 ea 39 89 95 32 3a 68 f7 14 39
       3.568063e-05 0.00044671906 0.00068124436 0.00014206546
000030 b7 ba 1a 39 d5 b2 cd 38 20 bb 27 3b 20 dc 06 3b
       0.00014756141 9.808472e-05 0.0025593713 0.0020577982

exp_avg f4 [5, 16]
000000 bc 1e a1 ba d9 ec 98 39 d5 95 b7 bb db bb 59 3a
       -0.0012292485 0.00029168164 -0.005602578 0.0008305886
000010 98 06 08 bb 38 7a 9b bb 82 86 a1 3b 3a e5 83 3b
       -0.0020755883 -0.004744794 0.0049293647 0.0040251287
000020 04 92 bb 3b 99 c7 72 3a dd 37 26 ba 94 08 3f ba
       0.0057241935 0.000926131 -0.0006340722 -0.000728735
000030 db 5a 88 3a 04 28 e6 3a b6 9d e3 b9 0e 53 58 39
       0.0010403054 0.0017559533 -0.00043414318 0.00020630306
000040 c7 69 51 3b 55 3c d0 bb 48 68 1a 3b fe 9f 83 38
       0.0031953917 -0.0063548484 0.0023560692 6.276368e-05
000050 07 ff 81 ba c3 3d db 38 87 33 cb bb 4b 1d 8a bb
       -0.0009917923 0.00010454238 -0.006201211 -0.004214918
000060 eb 66 21 bb a9 3e 0d bc 65 b5 5a bc 89 25 d5 bb
       -0.0024627994 -0.008620896 -0.013348912 -0.0065047187
000070 4f 4b 9b bb b4 59 ee bb 1d 44 9a 39 d2 ae 16 bc
       -0.004739202 -0.007273877 0.00029423917 -0.009196954
000080 64 a5 61 bc a2 23 25 bc af 51 65 bc b7 a4 94 ba
       -0.013772342 -0.010079296 -0.013996526 -0.0011340593
000090 d7 43 34 bc 2b 21 91 bb ed 08 09 bc e9 b7 fa bb
       -0.011002502 -0.0044290028 -0.0083639445 -0.0076513183
0000a0 7c df 98 bb 20 f7 1b bc 9c bb 6e bc 21 2a f9 bb
       -0.0046653133 -0.009519368 -0.014571097 -0.007603899
0000b0 10 df 6c bb fc ba 06 bc db f1 5b bb ec 52 29 bc
       -0.0036143698 -0.0082232915 -0.0033560905 -0.0103347115
0000c0 ef 60 9d 3b c0 a5 6c 3a 8b 01 fe ba a5 31 9c bb
       0.004802815 0.0009027384 -0.0019379122 -0.0047666603
0000d0 6d 94 93 ba 61 d2 8f 3a ab 34 f4 3a 8d 9f a2 3b
       -0.0011259444 0.0010972732 0.0018631419 0.0049628676
0000e0 e6 b9 25 ba 2e 97 24 3c 79 d5 8d 3c 3c 0a 30 3c
       -0.00063219515 0.01004581 0.017313706 0.010744628
0000f0 8e cb 94 3b 7f 77 22 3c bf 70 80 bb 02 53 9d 3b
       0.004540867 0.009916185 -0.0039196904 0.004801155
000100 d1 1b 96 3b bf f5 56 3c 31 3d cd 3c b6 53 4d 3c
       0.0045809527 0.013120114 0.025053592 0.012532165
000110 10 a5 68 3c 94 47 17 3c c2 f8 59 3b 80 57 52 3b
       0.01419951 0.009233374 0.0033259843 0.003209561
000120 99 c3 a8 ba 8e e1 d4 3b 73 f2 2a 3c 87 0e 84 3b
       -0.0012875675 0.006496615 0.010433781 0.004030052
000130 1d d5 06 3b b0 82 6d 3b 41 31 48 3c 9f 57 8f 3c
       0.0020573803 0.0036241226 0.012218774 0.017497836

exp_avg_sq f4 [5, 16]
000000 e7 c9 61 3a 0c 0e f2 3a 1a ea 9f 3b 24 3d 2c 3c
       0.00086131546 0.0018467321 0.004880202 0.010512624
000010 07 83 0e 3b 87 f2 b4 3a 14 5e 8f 3a 38 e9 4c 3a
       0.002174558 0.0013805189 0.0010938072 0.0007816735
000020 6b 6f d0 39 33 21 af 3a 87 1a 3e 3b 80 00 44 3a
       0.00039755864 0.0013361335 0.002900751 0.0007476881
000030 c9 74 8a 39 9c a9 61 3a d7 a1 3d 3b 43 e3 89 3b
       0.00026408423 0.00086083426 0.0028935575 0.004208
000040 9a bc 1d 3b 29 7e 41 3a 50 16 74 38 4b fa 96 34
       0.0024068714 0.0007381165 5.8194913e-05 2.812179e-07
000050 d5 59 65 39 5c 20 ca 37 9c b7 5c 3a 23 fe 19 3a
       0.00021872607 2.4095345e-05 0.0008419694 0.0005874356
000060 de 4c b4 39 30 64 78 3a 74 8c 07 3b 8c 7d 31 3a
       0.00034389546 0.00094753783 0.0020683082 0.0006770722
000070 d8 d3 3f 39 14 c6 36 3a af 7a 96 35 3b 79 1d 3a
       0.00018294097 0.0006972265 1.1211577e-06 0.00060071395
000080 a5 d1 3e 3b ec ea 92 3b 60 bc c3 3b e1 01 3e 39
       0.0029116657 0.0044835713 0.005973384 0.00018120512
000090 24 27 3e 3b 3a 38 85 39 a8 36 7b 3a ec 44 d6 39
       0.002901503 0.0002540963 0.00095830346 0.00040868612
0000a0 10 20 82 39 1b cc 6d 3a 7d d7 03 3b f6 de a2 39
       0.0002481942 0.00090712466 0.0020117455 0.00031065167
0000b0 62 b5 9f 38 ac 2a bb 39 1a 9b af 3a d0 13 ad 3a
       7.615496e-05 0.00035699212 0.0013397664 0.0013204757
0000c0 39 a5 39 3b 99 ab 52 3b c1 51 6c 3b d1 c3 85 39
       0.002832724 0.0032145737 0.0036059471 0.0002551363
0000d0 f8 00 0c 3b c4 53 62 39 92 22 70 3a f5 64 ce 39
       0.0021362882 0.00021584245 0.0009160425 0.000393666
0000e0 48 ae 8a 39 0c 38 4d 3a 0e 85 de 3a 50 f7 9b 39
       0.0002645126 0.0007828481 0.0016976909 0.00029748166
0000f0 05 3b 98 38 d3 54 b5 39 99 17 5c 3a 51 f4 8a 3a
       7.258918e-05 0.0003458621 0.00083958503 0.0010601376
000100 3a 7b 96 39 a0 bc 02 3b 29 fa 1c 3c 7d 05 94 3c
       0.0002870204 0.0019948855 0.009581127 0.018069023
000110 a7 0a 61 3b 1e 81 0b 3b 96 01 e1 39 da 62 85 39
       0.0034338625 0.0021286677 0.00042916526 0.00025441387
000120 bb 23 a8 38 90 1d 10 3a 41 b7 9b 3a 6e 60 39 39
       8.0175196e-05 0.0005497569 0.0011880175 0.00017678898
000130 34 40 46 38 13 b1 82 39 df 1d 91 3b f1 62 66 3b
       4.7266672e-05 0.00024927463 0.0044286097 0.0035154189

exp_avg f4 [5]
000000 9b 77 9e 3a 96 03 47 bb 1e 1f 04 bc bf 4e 0b 3b
       0.0012090089 -0.0030367128 -0.00806406 0.0021256653
000010 24 4b cd 3b
       0.006265061

exp_avg_sq f4 [5]
000000 e8 1d ee 39 34 97 ba 39 e8 51 a9 3a ae ac 84 3a
       0.0004541718 0.0003558934 0.0012918087 0.0010122263
000010 be 02 d4 39
       0.00040437834
