mase_output/jsc-tiny_classification_jsc_2024-01-26/software/training_ckpts/best-v5.ckpt (torch, 10778 bytes, 14 tensors)

model.seq_blocks.0.weight f4 [16]
1.7760676 1.5722002 1.526635 2.447419 1.2601969 1.2469945 1.0932326 0.91291255
0.94242936 1.127311 1.1225083 1.034827 0.8213303 0.8855565 1.5708892 1.6518704
00000000: 2f56 e33f db3d c93f c768 c33f 83a2 1c40
00000010: 224e a13f 849d 9f3f 0cef 8b3f a3b4 693f
00000020: 0d43 713f ba4b 903f 5aae 8f3f 3675 843f
00000030: b442 523f d5b3 623f e612 c93f 7d70 d33f

model.seq_blocks.0.bias f4 [16]
0.66054815 0.712685 1.1092136 0.53724384 0.8033397 0.5193019 0.4902596 0.58841974
0.44135758 0.3185877 0.85551095 -0.15085083 -0.27794823 0.20990653 0.99295557 0.7978765
00000000: af19 293f 8672 363f b6fa 8d3f d088 093f
00000010: aca7 4d3f f8f0 043f 4e03 fb3e ada2 163f
00000020: 9ff9 e13e ed1d a33e c402 5b3f a478 1abe
00000030: 3b4f 8ebe bdf1 563e 5632 7e3f a241 4c3f

model.seq_blocks.0.running_mean f4 [16]
-0.006835693 0.024287093 0.017356098 0.018201876 0.011509741 0.012629484 -0.014663667 -0.006046716
-0.014663667 -0.003710831 -0.0023794998 -0.0015682293 -0.009669895 -0.0065653007 0.017811544 -0.0120019065
00000000: f3fd dfbb baf5 c63c 602e 8e3c 1a1c 953c
00000010: 5a93 3c3c e5eb 4e3c e13f 70bc 8823 c6bb
00000020: e13f 70bc 6a31 73bb 62f1 1bbb 0b8d cdba
00000030: 7b6e 1ebc bc21 d7bb 84e9 913c a5a3 44bc

model.seq_blocks.0.running_var f4 [16]
0.9622092 0.9109202 1.0153087 1.0196385 1.0252793 1.0495079 1.0197004 1.0401529
1.0197004 1.0188445 1.00717 1.0199554 1.0178993 1.0259174 1.0128319 0.9756182
00000000: 5853 763f 1132 693f a3f5 813f 8483 823f
00000010: 5a3c 833f 4656 863f 8b85 823f bb23 853f
00000020: 8b85 823f 7f69 823f f2ea 803f e68d 823f
00000030: 864a 823f 4351 833f 7aa4 813f 1dc2 793f

model.seq_blocks.2.weight f4 [5, 16]
0.12405148 -0.022564363 -0.5757196 0.4521044 -0.5433548 -0.107490726 0.12213585 0.32790872
0.09561792 0.3205353 0.23873901 0.24298789 0.0030175336 -0.04336109 0.31166258 0.70065933
0.7235055 0.443085 -0.7551324 -0.456101 0.1206009 0.31606942 0.06991935 0.18235892
0.07664175 0.12202914 0.5037819 -0.13723187 -0.16988783 -0.03075135 -1.0388693 -0.41796032
0.31106302 0.5752507 0.22288115 -1.9268045 0.017986108 -0.19378313 0.13790406 -0.034284707
0.027201802 -0.061341494 0.17715317 -0.07830878 -0.113250926 0.025928661 0.5246428 -0.86509854
0.35442328 0.4172832 0.56971693 -0.56787586 0.17131895 -0.56630224 0.17519316 -0.099383034
0.04111746 -0.0014133789 0.076908395 0.01898345 0.16303624 0.24670619 0.44624463 -0.7127463
-0.106999144 0.08256314 0.4452925 0.24575573 0.30280396 0.37328526 -0.45758164 0.1269654
-0.15591791 0.071701095 -0.122738294 0.32977542 -0.11811816 0.0079914015 -0.05355315 -0.10595402
00000000: b40e fe3d e6d8 b8bc 5c62 13bf 3a7a e73e
00000010: 4d19 0bbf 1924 dcbd 5c22 fa3d a7e3 a73e
00000020: 54d3 c33d 341d a43e 0078 743e d1d1 783e
00000030: d0c1 453b 669b 31bd 3d92 9f3e 695e 333f
00000040: a837 393f 0adc e23e 5b50 41bf 1286 e9be
00000050: 9bfd f63d dad3 a13e e031 8f3d 4cbc 3a3e
00000060: 5af6 9c3d 6aea f93d daf7 003f 8386 0cbe
00000070: 13f7 2dbe 41ea fbbc abf9 84bf e5fe d5be
00000080: a743 9f3e a143 133f f53a 643e 88a1 f6bf
00000090: 9a57 933c 166f 46be b936 0d3e 1f6e 0cbd
000000a0: 50d6 de3c 3841 7bbd a467 353e 5b60 a0bd
000000b0: 1af0 e7bd 5868 d43c fe4e 063f 1977 5dbf
000000c0: f876 b53e 25a6 d53e f8d8 113f 5060 11bf
000000d0: 3c6e 2f3e 2ff9 10bf d665 333e 5589 cbbd
000000e0: c86a 283d 2041 b9ba 2682 9d3d 2e83 9b3c
000000f0: f9f2 263e 8ca0 7c3e 2d7a e43e 8b76 36bf
00000100: 5e22 dbbd dd16 a93d 61fd e33e 64a7 7b3e
00000110: 1f09 9b3e 3f1f bf3e 2448 eabe 3803 023e
00000120: f2a8 1fbe 06d8 923d 375e fbbd 53d8 a83e
00000130: efe7 f1bd 5eee 023c 8c5a 5bbd 6cfe d8bd

model.seq_blocks.2.bias f4 [5]
-0.027044201 0.38174158 0.85824263 0.25628576 -0.0043402785
00000000: cd8b ddbc a273 c33e cab5 5b3f e337 833e
00000010: e538 8ebb

exp_avg f4 [16]
-0.0010241495 -0.0023750737 -0.0076042763 -0.0065349033 -0.0034814023 -0.0011262555 -0.0006166605 0.0029202627
0.00015036766 0.0018411641 -0.0007188009 0.0018442286 0.00078375847 0.00023054505 -0.00034547396 0.009578289
00000000: c13c 86ba 20a7 1bbb 4b2d f9bb be22 d6bb
00000010: 3d28 64bb dd9e 93ba 63a7 21ba e161 3f3b
00000020: 03ac 1d39 3753 f13a e96d 3cba 0bba f13a
00000030: 2475 4d3a 77be 7139 bb20 b5b9 42ee 1c3c

exp_avg_sq f4 [16]
9.57789e-05 2.795788e-05 0.00032190856 0.00024671285 0.00022238129 0.00010110893 2.7509966e-05 4.652375e-05
5.4662337e-06 3.27526e-05 4.059269e-05 4.2985062e-05 1.345365e-05 1.0694976e-05 8.511827e-05 0.00041641732
00000000: e8dc c838 1787 ea37 d6c5 a839 3d59 8139
00000010: 062f 6939 720a d438 34c5 e637 7f22 4338
00000020: 976a b736 d65f 0938 1242 2a38 dc4a 3438
00000030: fdb6 6137 926e 3337 8681 b238 9652 da39

exp_avg f4 [16]
-0.0026420357 -0.005127356 -0.019130755 -0.024677161 -0.012644388 -0.00036840976 0.00081558083 0.0013905214
0.00058788434 0.0018856351 -0.002138769 0.0012428407 0.0002819768 -0.00075080665 -0.004884913 -0.0012570133
00000000: 0126 2dbb 6103 a8bb 1ab8 9cbc c227 cabc
00000010: 682a 4fbc 1f27 c1b9 b4cc 553a 2842 b63a
00000020: 401c 1a3a 6a27 f73a 972a 0cbb d0e6 a23a
00000030: 49d6 9339 c8d1 44ba 9f11 a0bb 5ec2 a4ba

exp_avg_sq f4 [16]
0.00011447651 0.00013025786 0.0004906943 0.0031597032 0.00023535299 0.00014716788 6.0532697e-05 5.1660634e-05
1.0833128e-05 3.6983543e-05 7.727559e-05 2.9653567e-05 1.3733569e-05 1.3137953e-05 0.00020275457 0.0008323012
00000000: 1c13 f038 d495 0839 f0a1 003a 0613 4f3b
00000010: 16c9 7639 1451 1a39 7de4 7d38 2fae 5838
00000020: eebf 3537 c71e 1b38 040f a238 8dc0 f837
00000030: 3b69 6637 146b 5c37 849a 5439 ca2e 5a3a

exp_avg f4 [5, 16]
0.0034222265 0.014667807 0.030868355 0.0141375065 0.024215395 0.013695043 0.009208724 0.011200859
0.008088978 0.010910809 0.013205852 0.0048976336 0.002944087 0.007766303 0.015829097 0.023136565
0.0017017928 -0.005817085 0.0013142078 -0.00034566293 0.00078574975 0.00016691898 0.0008932811 -0.00079657807
0.00071374397 -0.006395526 -0.010453209 -0.0031288215 -0.0019131568 -0.001982225 0.004081415 0.0033141803
-0.0020443986 0.0005098214 0.0025239377 0.017424803 0.0003498811 0.0011026354 -0.00013944265 0.0007984841
-7.303409e-05 8.19041e-05 0.00044739692 -0.0029770043 -0.0007830644 -0.0029261028 0.005578264 0.0020578813
-0.012952724 -0.010688424 -0.019580614 0.0045626047 -0.009638967 0.0001024374 5.7269885e-05 -0.0004963201
-1.9883162e-06 -0.0010182397 -0.004407565 0.001919069 0.0012586846 0.0016258542 -0.019536456 -0.0017932467
-6.686056e-05 -0.0038017917 -0.0077999914 0.0014575988 0.00054664974 0.00025633245 0.0031764114 -0.0005143442
0.002727045 -0.00051021547 0.0021249454 -0.00050939905 0.0005285951 -0.0004568255 0.0055472353 -0.00466897
00000000: 6f47 603b 3e51 703c a2df fc3c 00a1 673c
00000010: 5d5f c63c 2c61 603c 30e0 163c cf83 373c
00000020: a287 043c 40c3 323c 5c5d 583c 547c a03b
00000030: 95f1 403b 797c fe3b 06ac 813c e588 bd3c
00000040: b10e df3a 3f9d bebb 7f41 ac3a 183a b5b9
00000050: c6fa 4d3a f906 2f39 142b 6a3a 73d1 50ba
00000060: 8c1a 3b3a 9091 d1bb f043 2bbc ea0c 4dbb
00000070: e4c2 faba 38e8 01bb 64bd 853b b832 593b
00000080: 51fb 05bb 89a5 053a a668 253b 76be 8e3c
00000090: 3f70 b739 4e86 903a 5a37 12b9 5c51 513a
000000a0: e129 99b8 eec3 ab38 9990 ea39 d819 43bb
000000b0: 9046 4dba dcc3 3fbb dfc9 b63b 85dd 063b
000000c0: a937 54bc 801e 2fbc 8667 a0bc e781 953b
000000d0: c2ec 1dbc a9d3 d638 1235 7038 7a1b 02ba
000000e0: 036f 05b6 7476 85ba 566d 90bb 4589 fb3a
000000f0: 72fa a43a 9d1a d53a eb0a a0bc 600b ebba
00000100: 7d37 8cb8 7b27 79bb 1297 ffbb e60c bf3a
00000110: 0b4d 0f3a 5c64 8639 572b 503b 0ed5 06ba
00000120: 39b8 323b fbbf 05ba ab42 0b3b 3189 05ba
00000130: 6b91 0a3a 1582 efb9 95c5 b53b 29fe 98bb

exp_avg_sq f4 [5, 16]
0.00072789995 0.0010788823 0.0017330376 0.0026296673 0.0012482859 0.0008340124 0.00079616124 0.00083701126
0.0006078724 0.00080658554 0.0015039751 0.00034714874 0.0001213524 0.00043940486 0.0016707568 0.0026168372
0.0019966604 0.00028210183 3.637425e-05 2.9818696e-06 6.714281e-05 2.0381634e-05 0.0006271695 0.0006202279
0.00047707834 0.000504642 0.0009083689 0.00026632124 7.8135294e-05 0.00032276945 3.792302e-05 0.00024629344
0.0017455397 0.0008677479 0.0009070346 0.00029301006 0.00033972226 3.851845e-05 0.00049279176 0.0003325813
0.0003753804 0.00026166433 0.0005662516 0.00012817164 3.6475965e-05 0.00015982329 0.00084965274 0.00028003636
0.0017090635 0.0007567374 0.0007787033 0.00024227839 0.00033946324 6.76568e-05 0.00048970693 0.00032385567
0.0003731028 0.0002521054 0.00054574455 0.00012434699 3.456845e-05 0.00015534938 0.00079451804 0.0003389022
0.00021848487 0.0009792037 0.0024399406 0.0036331336 0.0013843215 0.0010034791 0.00020309287 0.0002015356
0.00015589914 0.00018645162 0.00043066 6.645185e-05 2.136939e-05 9.733084e-05 0.0023260436 0.0019405362
00000000: 8ad0 3e3a 4869 8d3a 1827 e33a 7f56 2c3b
00000010: 869d a33a a0a1 5a3a 7ab5 503a e06a 5b3a
00000020: a059 1f3a 0a71 533a 0821 c53a 8401 b639
00000030: 937e fe38 ec5f e639 4cfd da3a 3e7f 2b3b
00000040: 67da 023b 11e7 9339 8e90 1838 211c 4836
00000050: 06cf 8c38 3af9 aa37 a268 243a ca96 223a
00000060: 5f20 fa39 f449 043a 9b1f 6e3a 08a1 8b39
00000070: 91dc a338 6239 a939 880f 1f38 f220 8139
00000080: 98ca e43a 9379 633a 10c6 6d3a 259f 9939
00000090: c01c b239 df8e 2138 b22e 013a 4e5e ae39
000000a0: b4ce c439 fe2f 8939 8070 143a d065 0639
000000b0: c5fd 1838 3d96 2739 3bbb 5e3a d8d1 9239
000000c0: a802 e03a ca5f 463a e521 4c3a 1c0c 7e39
000000d0: fcf9 b139 f8e2 8d38 ad5f 003a 2ccb a939
000000e0: 039d c339 042d 8439 4c10 0f3a 2463 0239
000000f0: 97fd 1038 48e5 2239 3447 503a afae b139
00000100: 1619 6539 a058 803a 69e7 1f3b de19 6e3b
00000110: 1f72 b53a 2c87 833a 54f5 5439 4d53 5339
00000120: db78 2339 3a82 4339 35ca e139 115c 8b38
00000130: 6a42 b337 191e cc38 8970 183b 9759 fe3a

exp_avg f4 [5]
0.009324809 -0.0017493615 0.0010465551 -0.010220897 -0.003099603
00000000: 15c7 183c d54a e5ba 902c 893a 8d75 27bc
00000010: b622 4bbb

exp_avg_sq f4 [5]
0.00055201765 0.00036548587 0.0006403888 0.0005470229 0.00039834608
00000000: 47b5 103a af9e bf39 c4df 273a 1666 0f3a
00000010: 1bd9 d039
