mase_output/jsc-tiny_classification_jsc_2024-01-26/software/training_ckpts/best-v7.ckpt (torch, 10778 bytes, 14 tensors)

model.seq_blocks.0.weight f4 [16]
0	0x3ff16ac6	1.886071
1	0x3fc58230	1.5430355
2	0x403fd2d4	2.997243
3	0x408b8157	4.3595386
4	0x3fb33f93	1.4003776
5	0x3fab6d0e	1.3392656
6	0x3f3a6517	0.728105
7	0x3f494d80	0.7863388
8	0x3f7cb2d0	0.98710346
9	0x3eed76a5	0.4637958
10	0x3fa037ec	1.2517066
11	0x3f9bcfc8	1.2172785
12	0x3fa0b752	1.2555945
13	0x3f481edb	0.7817208
14	0x403e40b4	2.9726992
15	0x3fd47a23	1.6599773

model.seq_blocks.0.bias f4 [16]
0	0x3f21940e	0.6311654
1	0x3fa6aef1	1.3022138
2	0x3fc98fa7	1.5746964
3	0x3f8188d2	1.0119879
4	0x3fc0e672	1.5070326
5	0x3f5ce76a	0.8629061
6	0x3f60a79b	0.87755746
7	0x3f761de0	0.96139336
8	0xbe9e6079	-0.30932978
9	0x3f1ed7a5	0.620478
10	0x3fe4fcfa	1.7889702
11	0x3e698f72	0.22808626
12	0xbefc74d0	-0.4930787
13	0x3f407e22	0.75192463
14	0x3f84adba	1.0365517
15	0x3fd34499	1.6505309

model.seq_blocks.0.running_mean f4 [16]
0	0xbd55cdb4	-0.052198127
1	0x3d2ea9a9	0.04264227
2	0xbd74f43d	-0.059803236
3	0xbd486e9e	-0.048933618
4	0xbd5167cb	-0.051124375
5	0xbd537007	-0.05162051
6	0x3db90a14	0.090351254
7	0x3dfc689b	0.123246394
8	0x3db90a14	0.090351254
9	0x3deec88e	0.116593465
10	0x3dc9b40e	0.09848796
11	0x3d85946a	0.06522448
12	0x3de8ea15	0.113727726
13	0x3dca02f2	0.09863843
14	0xbd82bc40	-0.06383562
15	0x3d492124	0.04910387

model.seq_blocks.0.running_var f4 [16]
0	0x3f7a58b2	0.9779159
1	0x3f674fb2	0.9035598
2	0x3f6b7090	0.9196863
3	0x3f75a6ae	0.9595746
4	0x3f67c7fc	0.90539527
5	0x3f604fac	0.8762157
6	0x3f790c28	0.97284174
7	0x3f78f21e	0.9724444
8	0x3f790c28	0.97284174
9	0x3f7c5787	0.98571056
10	0x3f7a2dae	0.9772595
11	0x3f71d9d5	0.9447301
12	0x3f7b3277	0.9812388
13	0x3f761dc1	0.9613915
14	0x3f6c67fa	0.92346156
15	0x3f8437b9	1.0329505

model.seq_blocks.2.weight f4 [5, 16]
0	0x3ed2808d	0.411137
1	0x3f4548ca	0.7706419
2	0xbf966978	-1.1750937
3	0x3ddb49df	0.10707449
4	0xbf8bf0df	-1.0932883
5	0x3ee75c7c	0.45187747
6	0xbea1a13d	-0.31568328
7	0x3eae0a60	0.3399229
8	0x3e16ed07	0.14738856
9	0x3ea47917	0.32123634
10	0x3ed018ce	0.40643924
11	0xbcff2541	-0.031145694
12	0x3b48f05f	0.003066085
13	0xbe5558fd	-0.20834728
14	0x3f9092ed	1.1294838
15	0x3f123e88	0.57126665
16	0x3f6c256e	0.92244613
17	0x3f554d66	0.83321226
18	0x3d1b6342	0.037936457
19	0xbf5c43b9	-0.86040837
20	0x3e9482c2	0.2900601
21	0x3f0816a1	0.5315953
22	0xbe5c702a	-0.21527162
23	0xbe299004	-0.16558844
24	0x3e49be29	0.19701447
25	0x3d51b1c1	0.05119491
26	0x3f6a82d4	0.9160588
27	0xbec83523	-0.3910304
28	0xbe7984ec	-0.24367112
29	0x3e8d29c0	0.27570915
30	0xbfb96f7a	-1.4487145
31	0xbf855007	-1.0415047
32	0x3e70fb36	0.2353333
33	0x3ee64a8c	0.4497875
34	0x3fbbcffc	1.4672847
35	0xc0821807	-4.065433
36	0x3f2a7586	0.66585577
37	0xbdfbc30d	-0.12293062
38	0x3e22ef5c	0.15911621
39	0xbeedac47	-0.464205
40	0xbc94e0eb	-0.018173655
41	0xbe3baa98	-0.18326795
42	0x3e96b8a8	0.29437757
43	0x3d02b611	0.031911913
44	0xbc7c065d	-0.0153823765
45	0x3e692569	0.22768177
46	0x3f025df0	0.5092459
47	0xbfe76798	-1.8078489
48	0x3e6dc015	0.23217805
49	0x3eb7f4e0	0.35929012
50	0x3f6cc092	0.9248134
51	0xbfced4b0	-1.6158657
52	0x3e9029d2	0.28156906
53	0xbf3a91b4	-0.72878575
54	0x3c124b32	0.008929061
55	0xbd864e61	-0.06557918
56	0x3d15b4cd	0.03654938
57	0xbe1c9633	-0.15291671
58	0x3e98e0ca	0.29859
59	0xbcf747fd	-0.030185694
60	0xbea83b6e	-0.3285784
61	0x3f04de90	0.51902103
62	0x3f929da7	1.1454362
63	0xbfabf2b4	-1.3433442
64	0xbe08f278	-0.13373744
65	0x3e7a87e8	0.24465907
66	0x3f5c29eb	0.8600146
67	0xbe863ec5	-0.26219764
68	0x3e0377c1	0.12838651
69	0x3f1262f0	0.57182217
70	0xbf2be1fe	-0.6714171
71	0x3f1572e3	0.5837843
72	0xbf17e77d	-0.593376
73	0x3e8006e1	0.25005248
74	0xbf5ce0b3	-0.86280364
75	0x3f64e7df	0.8941631
76	0xbf9fdc31	-1.2489072
77	0x3d56bdae	0.052426986
78	0xbe7cd6ce	-0.24691316
79	0xbe5d5f51	-0.21618392

model.seq_blocks.2.bias f4 [5]
0	0xbf4d6056	-0.8022512
1	0xbebab466	-0.36465758
2	0x3fcc1d62	1.5946467
3	0x3f609d2c	0.87739825
4	0x3f63be5f	0.8896236

exp_avg f4 [16]
0	0x3bb244fe	0.0054403534
1	0x3b0a50d0	0.0021105297
2	0x3bd6d279	0.006555852
3	0x3c04a15a	0.00809511
4	0x3b50503d	0.0031786107
5	0x3a95e751	0.0011436736
6	0xba8ab631	-0.0010582862
7	0x3b6dbe88	0.0036276896
8	0x3981ca73	0.00024755634
9	0xbb7a1216	-0.0038157753
10	0xbc45963f	-0.012059747
11	0x3c006eb1	0.007838891
12	0xbb89530e	-0.004190809
13	0x3b29f783	0.0025934882
14	0xbaad47d9	-0.0013220265
15	0x3bd2d6b4	0.006434286

exp_avg_sq f4 [16]
0	0x3a3bd51c	0.00071652397
1	0x3945b3f9	0.00018854429
2	0x3b68e76b	0.0035538326
3	0x3a261d89	0.00063367985
4	0x3b1342a4	0.002247014
5	0x3a3290af	0.00068117207
6	0x39bbab54	0.0003579507
7	0x3a6accc4	0.0008956904
8	0x393aaaf0	0.00017802021
9	0x39623a29	0.00021574706
10	0x3aa8b4c6	0.0012871257
11	0x39d7cc78	0.00041160337
12	0x3a03c505	0.00050266116
13	0x39ab7417	0.00032702155
14	0x3aecd223	0.0018067997
15	0x3b19e257	0.0023480856

exp_avg f4 [16]
0	0x39e391cd	0.00043405444
1	0xb89acf8a	-7.3819494e-05
2	0x3c9cbc66	0.019132804
3	0xbd4829f0	-0.04886812
4	0x3c853880	0.016262293
5	0xbc219d3f	-0.009864151
6	0x3c008a5e	0.007845489
7	0xbc4ec06d	-0.01261912
8	0x39a3ae26	0.00031219533
9	0xbbe667e5	-0.007031428
10	0x3ad429cc	0.0016186773
11	0x3a9309b9	0.0011218108
12	0xbb466f4a	-0.0030278736
13	0x3c477e04	0.012176041
14	0xbb1222fd	-0.0022298687
15	0xbcf3da5a	-0.029767204

exp_avg_sq f4 [16]
0	0x3a29488c	0.00064576487
1	0x3a1b52f0	0.00059251394
2	0x3b962b47	0.004582796
3	0x3cff30e2	0.031151239
4	0x3b775de8	0.0037745181
5	0x3af7051d	0.0018846128
6	0x3a5e93f5	0.0008490675
7	0x3afeacc5	0.0019430151
8	0x391147a0	0.0001385496
9	0x39c8c5e6	0.00038294418
10	0x3b3b0faf	0.0028543284
11	0x3a1154c2	0.0005543941
12	0x3a1365a3	0.000562275
13	0x39e9cd2a	0.00044594082
14	0x3b38679c	0.0028137928
15	0x3bf1c2fe	0.007377981

exp_avg f4 [5, 16]
0	0xbc89a84f	-0.016803889
1	0xbc3f6bc5	-0.011683409
2	0xbc072392	-0.008248227
3	0xbbe42e23	-0.0069635077
4	0xbc8769ff	-0.016530035
5	0xbc78cc51	-0.015185432
6	0xbc3939fd	-0.011305329
7	0xbc779c00	-0.015112877
8	0x395b6dbd	0.00020926348
9	0xbc1b28ad	-0.009470147
10	0xbcc936cb	-0.02456226
11	0xbc071e94	-0.0082470365
12	0xbbaad090	-0.005212851
13	0xbc58c8ef	-0.0132315
14	0xbc4b57ec	-0.012411099
15	0xbbde57c2	-0.006785364
16	0x3c64c6df	0.01396343
17	0xbaedd80b	-0.0018146051
18	0x3b657504	0.0035012374
19	0xb8412e3b	-4.605784e-05
20	0x3b7da373	0.003870216
21	0x3ae8233a	0.0017710694
22	0xbadd4552	-0.0016881621
23	0xbb0aab4d	-0.0021159232
24	0x3a010ffe	0.00049233425
25	0xbbb97f06	-0.0056608943
26	0xbc896534	-0.01677189
27	0xbc47b910	-0.012190118
28	0xbb5e5668	-0.0033926014
29	0xbbc38207	-0.005966428
30	0x3b5d2805	0.0033745777
31	0xbb395904	-0.0028281817
32	0x3b019d5e	0.0019777636
33	0x3cc18ab6	0.023625713
34	0x3c48e11e	0.012260703
35	0xbb93cf32	-0.0045107836
36	0x3bc9bd94	0.0061566327
37	0x396f1bd3	0.00022803181
38	0x3bbed468	0.0058236606
39	0x3bf9de5c	0.0076253843
40	0xba1b2b98	-0.0005919277
41	0x3bf90efc	0.007600663
42	0x3cb12add	0.021626884
43	0x3c179485	0.009251718
44	0x3b95e42a	0.0045743184
45	0x3c155765	0.009115075
46	0x3ba389de	0.0049908003
47	0x3bb885c2	0.0056311795
48	0x3c55b202	0.013042929
49	0x3c0cb4f2	0.008588063
50	0x3c1245ed	0.008927804
51	0x3c5ea06c	0.013588052
52	0x3c8bc376	0.017060976
53	0x3c24e7e0	0.010065049
54	0x3c90a60e	0.017657306
55	0x3c83aef6	0.016074639
56	0x3b6d3e92	0.0036200625
57	0x3c3819e1	0.011236639
58	0x3d0172f3	0.031603765
59	0x3c4394eb	0.01193736
60	0x3b84690f	0.0040408443
61	0x3c78498d	0.015154255
62	0x3c59a20d	0.013283265
63	0x3c9d2261	0.019181432
64	0xbc0318d9	-0.00800153
65	0xb93ef302	-0.0001821034
66	0x3c8259dc	0.015911989
67	0x3d19ad56	0.03751882
68	0x3bda3c98	0.0066600554
69	0x3c346eb3	0.011012721
70	0xbad5e1ff	-0.0016317962
71	0x392c4c8b	0.00016431713
72	0x395bf60c	0.00020977127
73	0x3aa11c35	0.0012291732
74	0x3b49b5d6	0.0030778549
75	0x3bb1510e	0.005411274
76	0x3b26e3a8	0.0025465284
77	0x3b200fdc	0.0024423515
78	0x3ca857a8	0.02054961
79	0x3bef7678	0.0073078237

exp_avg_sq f4 [5, 16]
0	0x3b4a9ad9	0.003091505
1	0x3bdadb99	0.00667901
2	0x3c6a7170	0.014309272
3	0x3cbed3b1	0.023294302
4	0x3be88a9b	0.007096601
5	0x3b7d8a9e	0.0038687359
6	0x3b4c34d1	0.003115941
7	0x3b862e56	0.004094879
8	0x3a434f8d	0.00074505137
9	0x3ad6522d	0.0016351395
10	0x3c50d857	0.012746892
11	0x3b353e91	0.00276557
12	0x3a67a31e	0.0008836257
13	0x3b456b1f	0.0030123664
14	0x3c4ecf98	0.012622736
15	0x3c77d11e	0.015125541
16	0x3c068f1e	0.008212833
17	0x3b1147f0	0.0022168122
18	0x398e194c	0.00027103198
19	0x3799721d	1.829216e-05
20	0x3a5011cb	0.00079372217
21	0x3909aff6	0.00013130889
22	0x3b1a7c38	0.0023572575
23	0x3b47fcae	0.00305156
24	0x3a34f36b	0.0006902727
25	0x3a8f4db5	0.0010933193
26	0x3c09c672	0.008409129
27	0x3b126b52	0.00223418
28	0x3a1bc8e1	0.0005942714
29	0x3b15c4bb	0.0022852856
30	0x38d9b2c6	0.000103806655
31	0x3b10e55e	0.002210937
32	0x3c12cb22	0.008959563
33	0x3c33d09b	0.010975028
34	0x3c82c1a7	0.015961481
35	0x3b010cb3	0.0019691407
36	0x3bf4ef8a	0.0074748443
37	0x3a678191	0.00088312576
38	0x3b17ce6e	0.0023163813
39	0x3afb227a	0.0019160055
40	0x3a01af9e	0.00049471285
41	0x3a5184d5	0.0007992511
42	0x3bf1f6af	0.0073841433
43	0x3a889d1e	0.0010422801
44	0x397e7db8	0.00024270162
45	0x3a9f8d83	0.0012172911
46	0x3c330d6d	0.010928494
47	0x3b8041d6	0.0039140983
48	0x3c070af0	0.008242354
49	0x3bfa3abf	0.0076363976
50	0x3c185df4	0.009299744
51	0x3accad09	0.0015615533
52	0x3ba79f28	0.0051154085
53	0x3a34555a	0.00068791735
54	0x3b0878c7	0.0020823942
55	0x3aebd652	0.001799295
56	0x3a019e7b	0.0004944575
57	0x3a3dee60	0.00072452985
58	0x3bd1bfc6	0.006401035
59	0x3a8c87b2	0.0010721593
60	0x3982f3cd	0.00024977178
61	0x3a9e60f5	0.0012083339
62	0x3bd6b4db	0.0065523214
63	0x3b57653a	0.0032866732
64	0x3a9cc297	0.0011959848
65	0x3bf3c376	0.0074390722
66	0x3cf1c270	0.02951166
67	0x3d2fe2f1	0.042941038
68	0x3c37cf88	0.011218913
69	0x3bc38185	0.0059663677
70	0x3a9f63fb	0.0012160534
71	0x3ab6c1ad	0.0013943218
72	0x39391bdb	0.00017653352
73	0x3a1ebdd7	0.000605551
74	0x3ba68260	0.00508146
75	0x3a22fef0	0.0006217798
76	0x392e05e7	0.00016596132
77	0x3a7562c7	0.0009360727
78	0x3cb4d514	0.02207426
79	0x3c50fd75	0.012755741

exp_avg f4 [5]
0	0xbc1a482e	-0.009416623
1	0x3a90447d	0.0011006739
2	0x3c31fb76	0.010863176
3	0x3c1f4039	0.009719902
4	0xbb3f5ee8	-0.0029200856

exp_avg_sq f4 [5]
0	0x3afc1856	0.0019233327
1	0x3ab88655	0.001407812
2	0x3b851b57	0.004062097
3	0x3b3af25d	0.0028525807
4	0x3ae2d470	0.0017305743
