mase_output/jsc-tiny_classification_jsc_2024-01-26/software/training_ckpts/best-v9.ckpt (torch, 10778 bytes, 14 tensors)

model.seq_blocks.0.weight f4 [16]
000000 ee 64 24 3f e0 b5 17 bd 45 ac 38 40 e2 f1 af 40
       0.64216506 -0.037038684 2.8855145 5.4982767
000010 5f df a9 3d 07 c3 c0 3f 27 21 b5 3d dc 4c a6 be
       0.08294558 1.5059518 0.08844214 -0.32480514
000020 7e fe a1 be 52 4e 89 3d 64 0f 28 3f a3 b5 2b be
       -0.31639475 0.067043915 0.65648484 -0.16768508
000030 b4 e7 1c 40 2e fe 0b 3e c0 10 8f 40 d9 e6 9e 3f
       2.451642 0.1367118 4.4707947 1.2414199

model.seq_blocks.0.bias f4 [16]
000000 ae 6e b6 3e c0 78 53 bf bc df d1 3f 6f 9e 8e 3f
       0.35631317 -0.82606125 1.6396403 1.11421
000010 7f f3 f9 be 07 e3 79 3f 2b 62 5d bf 48 a1 89 bf
       -0.48818585 0.9761204 -0.8647792 -1.0752344
000020 f2 85 d9 bf 94 75 cf bf e2 a7 78 3f bf a7 a7 be
       -1.6994002 -1.6207757 0.9713117 -0.32745168
000030 33 99 fc bf f0 e4 cc be ac 94 2c bf 60 da a5 3f
       -1.9734253 -0.40018415 -0.67414355 1.2957268

model.seq_blocks.0.running_mean f4 [16]
000000 f3 fd df bb ba f5 c6 3c 60 2e 8e 3c 1a 1c 95 3c
       -0.006835693 0.024287093 0.017356098 0.018201876
000010 5a 93 3c 3c e5 eb 4e 3c e1 3f 70 bc 88 23 c6 bb
       0.011509741 0.012629484 -0.014663667 -0.006046716
000020 e1 3f 70 bc 6a 31 73 bb 62 f1 1b bb 0b 8d cd ba
       -0.014663667 -0.003710831 -0.0023794998 -0.0015682293
000030 7b 6e 1e bc bc 21 d7 bb 84 e9 91 3c a5 a3 44 bc
       -0.009669895 -0.0065653007 0.017811544 -0.0120019065

model.seq_blocks.0.running_var f4 [16]
000000 58 53 76 3f 11 32 69 3f a3 f5 81 3f 84 83 82 3f
       0.9622092 0.9109202 1.0153087 1.0196385
000010 5a 3c 83 3f 46 56 86 3f 8b 85 82 3f bb 23 85 3f
       1.0252793 1.0495079 1.0197004 1.0401529
000020 8b 85 82 3f 7f 69 82 3f f2 ea 80 3f e6 8d 82 3f
       1.0197004 1.0188445 1.00717 1.0199554
000030 86 4a 82 3f 43 51 83 3f 7a a4 81 3f 1d c2 79 3f
       1.0178993 1.0259174 1.0128319 0.9756182

model.seq_blocks.2.weight f4 [5, 16]
000000 1a 9c 04 bf 5e 54 09 3e 16 b3 52 be 80 66 3c be
       -0.5180069 0.1341109 -0.20576128 -0.18398476
000010 f4 32 c5 bd ec 4b 89 3d f9 65 05 bf 10 c5 a2 be
       -0.09628859 0.06703934 -0.5210872 -0.31790972
000020 0e cf 09 bf 4c 7b 87 3d ac bb 9a bd 70 48 49 bd
       -0.53831565 0.06615314 -0.07555327 -0.049141347
000030 b8 91 74 be ce 79 2e bf e8 0e d3 bd 00 bb 17 3c
       -0.23883712 -0.6815461 -0.103055775 0.009260893
000040 7a 5b 31 3f fc d8 d7 be cb 9d 2b c0 aa 01 6c c1
       0.6928021 -0.42157733 -2.681506 -14.750406
000050 27 e4 eb be 5f f7 b1 3f 6c 6c 8a 3e b9 30 55 3e
       -0.46072504 1.3903617 0.27035844 0.20819367
000060 36 dc 8a bd 36 18 96 3e 6d 63 c2 3e 9b 95 c2 bd
       -0.06780283 0.29315346 0.3796648 -0.09501191
000070 69 05 41 be 7d 37 5b be b9 cf 44 c2 c4 3c b5 bf
       -0.1884972 -0.21407886 -49.202854 -1.4159169
000080 48 78 b6 be 03 f7 44 3f 57 9b ae 3f 3c 41 a6 c0
       -0.35638642 0.7693941 1.3641156 -5.195463
000090 2a 8f 77 3e 53 74 4b 3f db e4 e9 bd 65 22 96 be
       0.24175707 0.7947437 -0.11420604 -0.29323116
0000a0 3b bb b8 bd a0 7b d7 3e 08 08 82 be 8d b3 6e be
       -0.090200864 0.42086506 -0.25396752 -0.2331068
0000b0 d1 a6 d0 bd 9c aa d9 be c4 5d 78 c0 69 6e d5 bf
       -0.10188068 -0.42512977 -3.880723 -1.667432
0000c0 ed ed e3 be ee 6a 1e bf 68 f4 e2 be 06 3f b1 be
       -0.4451746 -0.6188191 -0.44327092 -0.34618396
0000d0 28 44 fa be c9 8a 1a bf 23 db 0c 3e 5e b1 9e bf
       -0.48880124 -0.6036802 0.13755469 -1.2397878
0000e0 f7 4a 28 3c 54 fb 5a bf 4f da 49 bf 57 cd 3a bf
       0.010271779 -0.85539746 -0.7884874 -0.72969574
0000f0 b7 e9 75 bf 3e 4b 54 bf 95 c1 31 bf 89 32 1c bf
       -0.96059746 -0.8292731 -0.6943601 -0.6101461
000100 96 bd de bf 0b fd df be 37 6f 43 40 5e 2d 37 bf
       -1.7401607 -0.43747744 3.053663 -0.715536
000110 5a 90 37 3c 07 a9 62 3f 58 74 fe be 34 75 79 3d
       0.01120385 0.88539165 -0.49698138 0.06090279
000120 8a 78 0e bf 8c 70 22 be 88 99 0c c0 5e 4f b1 3e
       -0.5565268 -0.15863246 -2.1968708 0.34630865
000130 fa 34 a4 bf 96 ca 13 3e 5e 8c d1 be e7 48 10 bf
       -1.2828667 0.14432749 -0.40927404 -0.5636124

model.seq_blocks.2.bias f4 [5]
000000 8d c5 3f bf 70 89 8e 3f 7d 8d e5 3f 7c 2d 51 bf
       -0.74910814 1.1135693 1.7933804 -0.8171003
000010 00 1e 9d c0
       -4.909912

exp_avg f4 [16]
000000 85 42 ba ba 04 00 00 00 49 b1 a2 3c 77 32 ff 3a
       -0.0014210498 6e-45 0.019859927 0.0019469996
000010 04 00 00 00 25 3d f5 3b 04 00 00 00 04 00 00 00
       6e-45 0.0074840956 6e-45 6e-45
000020 04 00 00 00 04 00 00 00 fa b2 84 bb 04 00 00 80
       6e-45 6e-45 -0.004049656 -6e-45
000030 b7 64 eb b9 04 00 00 00 71 65 ac bb d6 2c a8 ba
       -0.0004489773 6e-45 -0.005261116 -0.0012830745

exp_avg_sq f4 [16]
000000 43 f6 ac 39 a8 97 76 20 de 2d a2 3b d9 16 61 3a
       0.00032989876 2.0887189e-19 0.0049493155 0.00085864734
000010 31 93 31 23 d0 a1 2e 3a a3 79 0a 23 07 8c 2b 22
       9.626358e-18 0.0006661685 7.5067526e-18 2.3248951e-18
000020 90 7f cb 20 d4 35 31 22 83 d0 09 3a 8a 76 50 22
       3.4473951e-19 2.401647e-18 0.0005257206 2.825201e-18
000030 7e 3a 84 38 5f d0 30 23 14 13 3a 39 77 74 39 3a
       6.3051455e-05 9.585103e-18 0.0001774545 0.00070745446

exp_avg f4 [16]
000000 27 27 ec bb 04 00 00 00 3f 79 d1 3b f4 51 1f bd
       -0.0072068158 6e-45 0.0063926275 -0.038896516
000010 04 00 00 00 82 0b 89 bb 04 00 00 00 04 00 00 00
       6e-45 -0.00418228 6e-45 6e-45
000020 04 00 00 00 04 00 00 00 22 51 67 bc 04 00 00 00
       6e-45 6e-45 -0.014118465 6e-45
000030 bd 25 37 ba 04 00 00 00 5d 1b 9b bc 57 54 b3 3b
       -0.00069865194 6e-45 -0.018933946 0.0054727006

exp_avg_sq f4 [16]
000000 92 7a f0 39 0e 26 14 21 9a 50 40 3b d6 78 7d 3c
       0.0004586769 5.0194715e-19 0.0029344917 0.015470704
000010 42 5e b7 22 b9 cc 66 3a c8 4c b6 22 0c fb d4 21
       4.970205e-18 0.000880431 4.9412494e-18 1.443213e-18
000020 17 21 04 20 69 33 01 22 f5 44 c9 3a bb 85 8b 22
       1.1191783e-19 1.7509976e-18 0.0015355634 3.781762e-18
000030 be e6 48 38 3b a5 83 23 e7 3e 87 3b b8 eb e6 3a
       4.789861e-05 1.4273026e-17 0.0041273716 0.0017617857

exp_avg f4 [5, 16]
000000 04 00 00 00 00 00 00 00 00 00 00 00 00 00 00 00
       6e-45 0.0 0.0 0.0
000010 00 00 00 00 00 00 00 00 04 00 00 00 04 00 00 00
       0.0 0.0 6e-45 6e-45
000020 04 00 00 00 00 00 00 00 00 00 00 00 00 00 00 00
       6e-45 0.0 0.0 0.0
000030 00 00 00 00 04 00 00 00 00 00 00 00 00 00 00 00
       0.0 6e-45 0.0 0.0
000040 27 12 3c bb 04 00 00 00 55 66 1b 3a 48 da b8 35
       -0.0028697343 6e-45 0.00059280294 1.3772597e-06
000050 04 00 00 80 e4 a2 2d 3a 04 00 00 00 04 00 00 80
       -6e-45 0.0006623699 6e-45 -6e-45
000060 04 00 00 80 04 00 00 80 9c 5c 44 bc 04 00 00 00
       -6e-45 -6e-45 -0.01198497 6e-45
000070 89 1d 93 bb 04 00 00 80 2e f5 be 35 80 70 61 bb
       -0.004489605 -6e-45 1.422746e-06 -0.003439933
000080 87 de 0e 3b 04 00 00 80 bc fd 7c 3b ca 9a 17 3b
       0.0021800117 -6e-45 0.0038603386 0.0023133033
000090 04 00 00 00 92 8e db ba 04 00 00 80 04 00 00 80
       6e-45 -0.0016750863 -6e-45 -6e-45
0000a0 04 00 00 00 04 00 00 80 f6 75 9f 3a 04 00 00 80
       6e-45 -6e-45 0.0012165892 -6e-45
0000b0 f5 89 5a 3a 04 00 00 00 95 e0 9b 3a ed cf 75 bb
       0.0008336597 6e-45 0.0011892492 -0.0037507967
0000c0 04 00 00 00 04 00 00 00 04 00 00 00 04 00 00 00
       6e-45 6e-45 6e-45 6e-45
0000d0 04 00 00 00 04 00 00 00 04 00 00 00 04 00 00 00
       6e-45 6e-45 6e-45 6e-45
0000e0 04 00 00 00 04 00 00 00 04 00 00 00 04 00 00 00
       6e-45 6e-45 6e-45 6e-45
0000f0 04 00 00 00 04 00 00 00 04 00 00 00 04 00 00 00
       6e-45 6e-45 6e-45 6e-45
000100 92 1d ca 39 04 00 00 00 04 f6 ab 3c 2e b6 e8 3c
       0.00038550474 6e-45 0.020991333 0.028407183
000110 04 00 00 00 8e 23 0b 3c 04 00 00 80 04 00 00 80
       6e-45 0.008492364 -6e-45 -6e-45
000120 04 00 00 00 04 00 00 80 be 55 ae 3b 04 00 00 00
       6e-45 -6e-45 0.00532028 6e-45
000130 34 10 df 39 04 00 00 80 c3 50 6b 3c 1e 2a 26 3c
       0.00042545947 -6e-45 0.014362517 0.010141877

exp_avg_sq f4 [5, 16]
000000 83 2d 6c 1d 00 00 00 00 00 00 00 00 00 00 00 00
       3.1257869e-21 0.0 0.0 0.0
000010 00 00 00 00 00 00 00 00 ce 96 37 1d 2d 13 05 1d
       0.0 0.0 2.4297813e-21 1.7612317e-21
000020 66 0a c2 1c 00 00 00 00 00 00 00 00 00 00 00 00
       1.2840531e-21 0.0 0.0 0.0
000030 00 00 00 00 13 d9 51 19 00 00 00 00 00 00 00 00
       0.0 1.08488845e-23 0.0 0.0
000040 5f c9 b4 39 85 e5 76 22 b6 5e 26 36 c2 1e 04 2f
       0.0003448231 3.3460723e-18 2.4791057e-06 1.2016257e-10
000050 25 59 6e 22 9c 53 58 37 c0 79 26 23 e7 bc f6 22
       3.2302207e-18 1.289407e-05 9.02466e-18 6.687844e-18
000060 d8 2e 3d 22 f8 df 39 22 65 c0 f5 39 65 a7 96 22
       2.5639075e-18 2.5190743e-18 0.00046873387 4.0834817e-18
000070 9c 8c e9 38 36 0a 9b 23 e0 2c 93 2c 74 a4 f8 38
       0.00011136496 1.6809458e-17 4.1829734e-12 0.00011856193
000080 13 ac be 39 c9 b6 84 21 33 e8 4a 3b 4a 5e 8d 38
       0.0003636783 8.993051e-19 0.0030961155 6.740967e-05
000090 5b 4c 50 21 5a 5e 52 39 3c 12 23 23 03 69 91 21
       7.0574197e-19 0.0002006231 8.840109e-18 9.853379e-19
0000a0 c7 de 84 21 1e 51 60 1f 85 c3 d3 39 e9 e1 bf 20
       9.003637e-19 4.7500944e-20 0.0004039073 3.2506153e-19
0000b0 42 bc c2 37 f4 a7 d3 22 5e 5c 75 37 02 4b da 39
       2.3214267e-05 5.736949e-18 1.4624644e-05 0.00041636085
0000c0 ab 73 59 1f 30 1b 24 21 4a 57 8e 22 84 10 af 22
       4.6047216e-20 5.5601344e-19 3.85816e-18 4.745133e-18
0000d0 87 43 7c 22 dc b9 8b 22 4f 5a c8 21 c2 81 29 20
       3.4188117e-18 3.787281e-18 1.3576432e-18 1.435779e-19
0000e0 6a 79 95 21 7a 04 78 20 85 97 7b 20 fd d1 cb 20
       1.0128771e-18 2.1007898e-19 2.131066e-19 3.4528496e-19
0000f0 56 30 52 20 cd a0 be 20 65 1d 80 22 e9 cd 0b 22
       1.7803685e-19 3.229366e-19 3.4725592e-18 1.894702e-18
000100 33 c0 88 37 c7 60 82 20 f6 8d 20 3c 89 b1 c9 3c
       1.6301963e-05 2.2086899e-19 0.009799471 0.024620788
000110 e7 b9 b2 24 d4 d4 14 3b 6b 43 53 22 eb 9d 21 22
       7.7510126e-17 0.0022709863 2.8631523e-18 2.190317e-18
000120 10 77 ff 20 5f d2 4d 22 6a 0c b4 39 5b 08 5c 22
       4.327747e-19 2.789405e-18 0.00034341525 2.9819983e-18
000130 3c 42 ac 37 09 54 24 23 3f c7 06 3c 5f b1 f4 3a
       2.053484e-05 8.908253e-18 0.008226215 0.0018668583

exp_avg f4 [5]
000000 04 00 00 00 2c fd d3 bb 86 8c a3 3a 04 00 00 00
       6e-45 -0.0064693894 0.0012477792 6e-45
000010 1d 66 8a 3b
       0.0042235986

exp_avg_sq f4 [5]
000000 12 19 10 1c 99 52 96 39 4b f1 60 3a 5a 76 92 21
       4.7678006e-22 0.0002867177 0.00085808773 9.924672e-19
000010 ec a8 bf 39
       0.00036556215
