mase_output/jsc-tiny_classification_jsc_2024-01-26/software/training_ckpts/best-v13.ckpt (torch, 10778 bytes, 14 tensors)

model.seq_blocks.0.weight f4 [16]
0	0x3fbce2b6	1.4756687
1	0x3fbc5a27	1.4715012
2	0x4071f480	3.780548
3	0x407cd5cf	3.9505498
4	0x3fe17df4	1.7616563
5	0x3f85b1dc	1.0444903
6	0x3f15cc01	0.5851441
7	0x3f79f585	0.9764026
8	0x3f615f36	0.88035905
9	0x3f80b53b	1.0055307
10	0x3f91ed5b	1.140056
11	0x3fa4798a	1.2849591
12	0x3fb528ec	1.4153113
13	0x3f95dd36	1.1708133
14	0x40299ada	2.6500764
15	0x3ff96ecb	1.9486936

model.seq_blocks.0.bias f4 [16]
0	0x3f438001	0.76367193
1	0x3dca7b06	0.09886746
2	0x40111454	2.2668657
3	0x3f8f3b0f	1.1189898
4	0x3fcb1be0	1.5867882
5	0x3f83fcc3	1.0311512
6	0x3f285642	0.6575662
7	0x3f93e8d5	1.155543
8	0xbe857c3a	-0.2607134
9	0xbe794180	-0.24341393
10	0x3fd0c941	1.6311418
11	0x3eb63e1d	0.35594264
12	0xbf0a759b	-0.540857
13	0x3ed38836	0.41314858
14	0x3f88fa08	1.0701303
15	0x40011289	2.0167563

model.seq_blocks.0.running_mean f4 [16]
0	0xbd84523c	-0.064609975
1	0x3d6e81c5	0.058229227
2	0x3cfa1a5f	0.030530153
3	0x3cc2b08f	0.02376583
4	0xbc25fba9	-0.010130801
5	0xbce6c24b	-0.028168818
6	0xbd7a1ca4	-0.06106247
7	0xbd6e091d	-0.05811416
8	0xbd7a1ca4	-0.06106247
9	0xbac1f666	-0.0014798164
10	0x3cecb06f	0.028892724
11	0x3cb13089	0.021629589
12	0xbc7eea47	-0.015558786
13	0xbce66c79	-0.028127896
14	0x3d2a8263	0.041628253
15	0x3cc28fed	0.02375027

model.seq_blocks.0.running_var f4 [16]
0	0x3f762720	0.9615345
1	0x3f56dbd4	0.8392918
2	0x3f7bbb77	0.98332924
3	0x3f814dc8	1.0101862
4	0x3f799d19	0.97505337
5	0x3f71b60b	0.944184
6	0x3f74af8e	0.95580375
7	0x3f75dd4b	0.9604079
8	0x3f74af8e	0.95580375
9	0x3f8a1751	1.0788366
10	0x3f8d6627	1.10468
11	0x3f876763	1.0578426
12	0x3f88b81e	1.0681188
13	0x3f8158b5	1.0105196
14	0x3f783d57	0.969686
15	0x3f7713b7	0.9651446

model.seq_blocks.2.weight f4 [5, 16]
0	0xbd724d6a	-0.05915586
1	0x3d943e61	0.0723846
2	0xbe52b316	-0.20576128
3	0xbe3c6680	-0.18398476
4	0xbe1ea584	-0.15492827
5	0x3bbc4c9a	0.0057464363
6	0xbd97b4a7	-0.074075036
7	0x3e01447d	0.12623782
8	0xbdb48000	-0.088134766
9	0x3cb57a25	0.02215297
10	0xbddbc28b	-0.107304655
11	0xbd600d3f	-0.054700132
12	0xbe842fa5	-0.258176
13	0xbe5a2eba	-0.21306887
14	0xbe221bc9	-0.15830912
15	0xbcf29406	-0.029611599
16	0x3f570108	0.8398595
17	0x3f5923b6	0.84820116
18	0x3ec756f2	0.38933522
19	0x3e8ee01d	0.2790536
20	0x3f358b5d	0.70915776
21	0x3ee83a12	0.45356804
22	0xbe264b91	-0.16239764
23	0xbe97af0f	-0.29625747
24	0x3e6a66b3	0.22890739
25	0xbef6dbd6	-0.48214597
26	0x3f669263	0.9006712
27	0xbee30334	-0.4433838
28	0xbd6e9fe3	-0.05825795
29	0x3e97a911	0.29621175
30	0xbffba0b0	-1.9658413
31	0xbf8d1ebc	-1.1025004
32	0x3e47339f	0.19453286
33	0x3eee90b0	0.46594763
34	0x3fd342ad	1.6504723
35	0xc055fd49	-3.3435843
36	0x3f839f14	1.0282922
37	0x3ecba166	0.39771575
38	0x3eb75116	0.3580405
39	0xbf6b68a5	-0.9195655
40	0x3db87bd9	0.09007997
41	0xbe626184	-0.22107512
42	0x3e7ccf5c	0.24688476
43	0xbe2b287c	-0.16714662
44	0xbed2a3a6	-0.4114048
45	0x3f15b1d5	0.58474475
46	0x3d861ed7	0.06548851
47	0xbffd5f67	-1.979474
48	0x3e485420	0.19563341
49	0x3e863815	0.26214662
50	0x3facb5e6	1.3493011
51	0xbfe5b30e	-1.7945268
52	0x3f573950	0.84071827
53	0xbf52104b	-0.8205611
54	0x3e2886d5	0.16457684
55	0xbe9c4ed5	-0.30528894
56	0x3d98eb2b	0.0746673
57	0xbee20561	-0.4414473
58	0x3e17e4cd	0.14833374
59	0xbc8a7a0d	-0.016903901
60	0xbeb6579d	-0.3561372
61	0x3ee202c9	0.4414275
62	0x3f106e23	0.56418055
63	0xbfcae099	-1.5849792
64	0xbeaa4806	-0.33258075
65	0xbe541fc8	-0.20715249
66	0x3f99e77b	1.2023767
67	0xbe949809	-0.29022244
68	0x3ebd7bd9	0.3700855
69	0x3ed36379	0.4128683
70	0xbee89dc7	-0.45432875
71	0x3ebfe225	0.37477222
72	0xbef90ed7	-0.48644134
73	0xbd7edacf	-0.06222039
74	0xbf84c1c6	-1.0371635
75	0x3f51c0fe	0.8193511
76	0xbf8d54f4	-1.1041551
77	0x3e0ad3ad	0.1355731
78	0xbf7a994f	-0.9789018
79	0xbf0018a9	-0.5003763

model.seq_blocks.2.bias f4 [5]
0	0xbe9d52ee	-0.30727333
1	0xbe5679f7	-0.20944963
2	0x3f9ed5b4	1.2408967
3	0x3f744d1e	0.9543017
4	0x3f86e917	1.0539883

exp_avg f4 [16]
0	0x3b9984e9	0.0046850336
1	0xbaa2064a	-0.0012361493
2	0xbc2369f9	-0.009973996
3	0x3ac768cf	0.001521373
4	0xbbc9e3ae	-0.0061611747
5	0x3b9de17d	0.00481814
6	0x3b6b7673	0.0035928756
7	0xbc032365	-0.008004044
8	0x3b2ba67f	0.0026191769
9	0xba46ef03	-0.0007588716
10	0x3c2c1665	0.010503386
11	0xbac115ab	-0.0014731189
12	0xba4d427f	-0.0007830038
13	0xba50ba8d	-0.00079623685
14	0x3bb3f9ad	0.00549241
15	0x3b6f50ae	0.0036516595

exp_avg_sq f4 [16]
0	0x3acd69e8	0.0015671821
1	0x39a7aba0	0.00031980593
2	0x3b7748b2	0.0037732539
3	0x3a91048b	0.0011063976
4	0x3a2f3d88	0.0006684889
5	0x3b1223a9	0.0022299087
6	0x3a07338e	0.00051575236
7	0x3acf863c	0.0015832852
8	0x39747441	0.00023312961
9	0x39958acb	0.00028522903
10	0x3b45836c	0.0030138148
11	0x3a36dc48	0.00069755735
12	0x3a1db9c8	0.0006016758
13	0x3949af55	0.0001923417
14	0x3b460e43	0.0030220903
15	0x3b1cf955	0.0023952324

exp_avg f4 [16]
0	0x3ab6231c	0.0013895961
1	0xbb7eeb8a	-0.0038897716
2	0xbcf708bb	-0.03015553
3	0x3d348db5	0.044080455
4	0xbc47d2b0	-0.012196228
5	0x3b64b7b2	0.003489953
6	0xbbad5b1c	-0.005290402
7	0x3c17a5d0	0.009255841
8	0x3bb0773c	0.0053853076
9	0x39b52ab6	0.00034554832
10	0xbad31a3b	-0.001610584
11	0xbc269f00	-0.0101697445
12	0x3945b85a	0.0001885606
13	0xbb716ed3	-0.0036839738
14	0xbbc332ef	-0.0059569995
15	0x3c6bc40d	0.014390004

exp_avg_sq f4 [16]
0	0x3adb4f94	0.001673209
1	0x3a981323	0.0011602383
2	0x3b8cfe45	0.004302772
3	0x3cb199f1	0.02167985
4	0x3adee353	0.0017005004
5	0x3bc74c1e	0.006082072
6	0x3a8ad07b	0.0010590696
7	0x3b5bee0c	0.0033558635
8	0x394212f4	0.00018508342
9	0x397c78c4	0.00024077581
10	0x3bb3ad27	0.005483288
11	0x3a8a1adb	0.0010536568
12	0x3a39dfde	0.0007090549
13	0x39912c2c	0.00027689466
14	0x3b9d4b81	0.0048002605
15	0x3bf11fae	0.007358513

exp_avg f4 [5, 16]
0	0x00000004	6e-45
1	0x00000004	6e-45
2	0x00000000	0.0
3	0x00000000	0.0
4	0x00000004	6e-45
5	0x00000004	6e-45
6	0x00000004	6e-45
7	0x00000004	6e-45
8	0x00000004	6e-45
9	0x00000004	6e-45
10	0x00000004	6e-45
11	0x00000004	6e-45
12	0x00000004	6e-45
13	0x00000004	6e-45
14	0x00000004	6e-45
15	0x00000004	6e-45
16	0x3cacfdf5	0.02111719
17	0x3b6eed76	0.0036457456
18	0xba053456	-0.0005081346
19	0xbb5c819d	-0.0033646591
20	0x3bbbbb50	0.0057291165
21	0xbb157a39	-0.0022808446
22	0x3bb37de1	0.0054776524
23	0x3c3abc65	0.011397456
24	0x3bae8934	0.0053264145
25	0x3b80f138	0.0039350055
26	0x3c408b0a	0.0117518995
27	0x3beb4b60	0.0071806163
28	0x3bcc2af4	0.0062307063
29	0x3c1a0c5d	0.009402362
30	0xbb264e57	-0.0025376284
31	0x3bb7e44e	0.005611933
32	0x3c8cd206	0.01718999
33	0xbbc7fcb4	-0.0061031226
34	0xbcde0d7c	-0.02710604
35	0xbb919bb2	-0.004443609
36	0xbba62f1c	-0.005071534
37	0xbafcccaa	-0.0019287069
38	0x39c8bb1e	0.00038286386
39	0xbae1c591	-0.0017225017
40	0x3a7e1871	0.0009692973
41	0xbb08e6a3	-0.0020889423
42	0xbbbeec37	-0.005826499
43	0xbb9d16d0	-0.004793979
44	0xbb0281fd	-0.0019913905
45	0xbb1ba897	-0.002375161
46	0xbc898a2f	-0.016789524
47	0x3b329546	0.0027249618
48	0xbd618824	-0.055061474
49	0xbc113faf	-0.008865281
50	0xbce73c8e	-0.028227117
51	0xbc882793	-0.016620433
52	0xbd0882ce	-0.03332787
53	0xbc66217c	-0.014046069
54	0xbc59cfd8	-0.013294183
55	0xbc963e06	-0.018340122
56	0xbbc8612c	-0.0061150994
57	0xbae11247	-0.0017171585
58	0xbcb40c9f	-0.021978674
59	0xbb5c718d	-0.0033637017
60	0xbb3abeaa	-0.0028494992
61	0xbc039e6b	-0.008033375
62	0xbc84f915	-0.016232053
63	0xbceff8de	-0.029293474
64	0x3bece29b	0.007229162
65	0x3a3d6a93	0.00072256586
66	0xbc9dc649	-0.019259589
67	0xbd232e12	-0.039838858
68	0xbb4ea82d	-0.0031533346
69	0xbb34aed2	-0.0027570021
70	0xbb61e624	-0.003446945
71	0xbb26879e	-0.0025410424
72	0xb8ba5792	-8.8854824e-05
73	0x3b4178a0	0.002952136
74	0xbb57fa70	-0.003295567
75	0xbb805871	-0.003916793
76	0x3b1fb3e3	0.0024368695
77	0xbb20a835	-0.0024514322
78	0xbc5f7942	-0.01363975
79	0xbb1e19c3	-0.0024124242

exp_avg_sq f4 [5, 16]
0	0x000001f4	7e-43
1	0x000001f4	7e-43
2	0x00000000	0.0
3	0x00000000	0.0
4	0x000001f4	7e-43
5	0x000001f4	7e-43
6	0x000001f4	7e-43
7	0x000001f4	7e-43
8	0x000001f4	7e-43
9	0x000001f4	7e-43
10	0x000001f4	7e-43
11	0x000001f4	7e-43
12	0x000001f4	7e-43
13	0x000001f4	7e-43
14	0x000001f4	7e-43
15	0x000001f4	7e-43
16	0x3c445d0c	0.011985075
17	0x3a01fed5	0.00049589324
18	0x3b42be19	0.0029715358
19	0x3adbeda9	0.0016779202
20	0x3b11e3e4	0.0022261078
21	0x3a7940c3	0.00095082464
22	0x3b0d9a98	0.0021607038
23	0x3be1cc1b	0.0068907863
24	0x3a67b59e	0.0008839014
25	0x3a61da18	0.00086155673
26	0x3c313997	0.010816953
27	0x3b93896b	0.0045024655
28	0x3a8dbc31	0.0010813532
29	0x3b810ad1	0.003938057
30	0x3a2842a8	0.0006418624
31	0x3b58bc9c	0.0033071404
32	0x3c463ff6	0.01210021
33	0x3b081acf	0.0020767932
34	0x3d21ecbf	0.03953242
35	0x3b9947b5	0.0046777376
36	0x3c3530f6	0.0110590365
37	0x3b28fed7	0.0025786662
38	0x3aec2bd6	0.0018018435
39	0x3b624bf3	0.0034530133
40	0x3a186655	0.00058135885
41	0x39760abe	0.0002346439
42	0x3bf325b6	0.007420267
43	0x3adef50f	0.0017010289
44	0x3991925d	0.00027765604
45	0x3ab79c80	0.0014008433
46	0x3c5df4c2	0.013547124
47	0x3bf56f89	0.0074901027
48	0x3c35989c	0.011083748
49	0x3af2a84d	0.0018513292
50	0x3cfeb4cd	0.031092072
51	0x3ba77ae5	0.0051110857
52	0x3c1d50ae	0.009601755
53	0x3b160fc4	0.002289758
54	0x3aea54c8	0.001787805
55	0x3b6871d0	0.0035468228
56	0x3a264aba	0.00063435326
57	0x3969fdcd	0.0002231516
58	0x3be19ef2	0.006885403
59	0x3ad7d9d0	0.0016468111
60	0x398ff259	0.00027455649
61	0x3abdbc0e	0.00144756
62	0x3c38e8b0	0.011285946
63	0x3c008370	0.007843837
64	0x3af901d9	0.0018997743
65	0x3b3376ad	0.0027383969
66	0x3dc83e53	0.097775124
67	0x3d9bd115	0.076082386
68	0x3cdf8bf2	0.02728841
69	0x3c242bfa	0.01002025
70	0x3aa46a72	0.001254393
71	0x3b6fbfd5	0.0036582847
72	0x398bf994	0.00026698096
73	0x39a1f4bc	0.00030890654
74	0x3bed9eef	0.0072516124
75	0x3ac3ef2d	0.0014948599
76	0x39b52324	0.00034549192
77	0x3ac0db89	0.0014713864
78	0x3d113f47	0.035460737
79	0x3d01d341	0.031695608

exp_avg f4 [5]
0	0x00000004	6e-45
1	0x3c3b5988	0.01143492
2	0xba107474	-0.0005510517
3	0xbcd81c10	-0.026380569
4	0x3b3ed73d	0.0029119991

exp_avg_sq f4 [5]
0	0x000001f4	7e-43
1	0x3b1ba4cf	0.0023749357
2	0x3ba58f3c	0.0050524753
3	0x3b8839bc	0.004157273
4	0x3b3d8375	0.0028917466
