mase_output/jsc-tiny_classification_jsc_2024-01-26/software/training_ckpts/best-v2.ckpt (torch, 10778 bytes, 14 tensors)

model.seq_blocks.0.weight f4 [16]
00000000: 1478 ad3f 31af 8f3f a2e7 a73f cd01 b03f
00000010: a3ae 9f3f e339 a43f 7027 963f b681 913f
00000020: 05c2 8d3f 31ba 973f 6b5a 933f 0476 753f
00000030: c132 473f eaac 5e3f 31f9 9a3f 22f1 a93f
1.355227 1.1225339 1.3117564 1.375055 1.247517 1.2830166 1.1730785 1.136771
1.1074835 1.1853696 1.1511968 0.958832 0.7781182 0.86982596 1.2107297 1.3276713

model.seq_blocks.0.bias f4 [16]
00000000: 6693 603e 421e 183e 90f0 b73e e112 a13e
00000010: 73dc 2b3e 5648 6b3e 395d 993e ac7b 953e
00000020: 4658 6b3e a000 4c3e c105 963e 4918 ddbd
00000030: 36bc 85be 365d 053d 3d1f f73e 269d 6a3e
0.21931228 0.14855292 0.35925722 0.31459716 0.16783313 0.22976813 0.29953936 0.29195917
0.22982892 0.19922113 0.29301265 -0.10795648 -0.26120156 0.032559596 0.4826602 0.2291151

model.seq_blocks.0.running_mean f4 [16]
00000000: 2050 913c 0075 babb 24ef ebbb 3d3c 57bc
00000010: 86c1 94bb f8ef fabb 539a e03a 8347 f4bb
00000020: 539a e03a e069 18bc 689e ecbb 07b7 80bb
00000030: 8f69 3bbb 7682 2cbb a700 02bb a9e6 82bc
0.017738402 -0.005690217 -0.0072001386 -0.0131369205 -0.0045396714 -0.007658001 0.0017135836 -0.007454814
0.0017135836 -0.009302586 -0.007221032 -0.0039280686 -0.0028596853 -0.0026322878 -0.0019836815 -0.015979128

model.seq_blocks.0.running_var f4 [16]
00000000: af55 803f 6114 793f 8acf 7a3f 696f 773f
00000010: 4988 7c3f 9ad9 803f c8ba 823f 578c 803f
00000020: c8ba 823f 124b 7b3f d1de 7c3f 551b 7f3f
00000030: 6724 7b3f f3bb 7f3f cf2d 7c3f 0ee1 783f
1.0026149 0.9729672 0.9797293 0.96654373 0.98645455 1.0066407 1.0213251 1.0042828
1.0213251 0.98161423 0.9877749 0.9965108 0.9810242 0.9989616 0.985074 0.97218406

model.seq_blocks.2.weight f4 [5, 16]
00000000: ed58 9bbe 8d3a 403e 6772 2abe bae9 7a3d
00000010: c3c2 9abd cbf5 db3d 97ef 9d3d 9b3f b13e
00000020: b7fc 563d dfe7 a53e ea62 4d3e d8f7 3f3e
00000030: 9c67 f83c 2962 8a3c 39dd 0b3e b0fb f23e
00000040: c55f fe3e ebe9 f1bd 73ec 21bf 3c4f d1be
00000050: 176a 56be 92ab a33d 81d9 bf3c feb2 933e
00000060: bcaa 013d 9785 f83d 5be3 ae3e 700d c8bc
00000070: a604 f4bd 889f cf3d d301 15bf 1d82 52be
00000080: 453e a43d 42c3 923e afb5 01be b117 3cbf
00000090: 6b38 20be 3a98 c8bb b094 143e a249 b93c
000000a0: 1e9c 1c3d f1e8 bcbd d4d6 2b3e 77ba 30be
000000b0: 86de 39be 5d0a f9bd 7a98 8d3e 55c1 9abe
000000c0: f1ca 0b3d 51d2 033d 884d 013d 84b0 a43d
000000d0: c27f 1f3e 9e39 29bd f2ad 983e fc25 bcbd
000000e0: 675d 353e 6bf2 36be 71be 3bbe 2525 27be
000000f0: aed1 093e a8b6 ee3d df39 a4bd 9492 e5bd
00000100: f208 55be b908 19bc 6db9 913e 0a8d a63e
00000110: 6424 c13e fe8f 003f 7d4f 99be 9594 713c
00000120: b752 d1ba 8cfe c93d f81f e43b d076 4b3e
00000130: 6dcc 9dbd 2f42 e4bd 41ed fa3d a72c 1fbe
-0.30341282 0.18772335 -0.16645204 0.061258055 -0.07556679 0.10740241 0.07711714 0.3461884
0.0524871 0.32403466 0.20057264 0.18746889 0.030322842 0.01689251 0.13658608 0.47457647
0.4968244 -0.118121944 -0.6325142 -0.40880764 -0.20938908 0.07991709 0.023419144 0.28847498
0.031656966 0.12134855 0.34157833 -0.02442047 -0.11914949 0.1013785 -0.5820591 -0.20557447
0.080196895 0.28664595 -0.12666963 -0.7347365 -0.15646522 -0.0061216624 0.14509845 0.022618119
0.038234822 -0.092241175 0.16781169 -0.1725863 -0.18151292 -0.1216018 0.27655393 -0.30225626
0.034129087 0.032182995 0.03156808 0.0804148 0.1557608 -0.041314714 0.2982021 -0.091869324
0.17711411 -0.17865913 -0.18334366 -0.16322763 0.13458893 0.11655933 -0.080188505 -0.11209598
-0.20804194 -0.009340459 0.2846178 0.3252948 0.37723076 0.50219715 -0.29943457 0.014744897
-0.0015970086 0.09863004 0.006961819 0.19869542 -0.07705007 -0.11145436 0.12252284 -0.15544377

model.seq_blocks.2.bias f4 [5]
00000000: ebda 45be dd9d 623e d9fb 183f 35b7 13be
00000010: 65bf 1fbe
-0.19321792 0.22130533 0.5975929 -0.14425357 -0.15600355

exp_avg f4 [16]
00000000: c368 dfbb 36ab af38 a0b5 faba 26d5 f7bb
00000010: 3c96 30ba af9a dfba e4f7 83b9 9d13 bdba
00000020: 04af f9b7 ba0b d2b8 ae5b a7b9 9606 b5b9
00000030: d8d7 863a 7c73 283a 5efc 2a3a def6 55bc
-0.0068179085 8.376541e-05 -0.0019127615 -0.007563251 -0.0006736254 -0.0017059649 -0.0002517096 -0.0014425401
-2.9764611e-05 -0.000100157646 -0.0003192103 -0.00034527917 0.0010287715 0.00064259 0.0006522591 -0.013059346

exp_avg_sq f4 [16]
00000000: 2e82 2a39 eb2e 6237 f57d 9d38 0a30 b638
00000010: b89e ab38 d7c5 b338 09cd fc37 5343 5f38
00000020: 91fd c636 1f34 2838 c52a a437 485d d537
00000030: 5562 2837 eac3 0b37 ecd2 b236 7036 df39
0.00016260959 1.3481574e-05 7.509805e-05 8.687384e-05 8.183479e-05 8.572236e-05 3.0136218e-05 5.3230044e-05
5.930379e-06 4.0102863e-05 1.957024e-05 2.5435016e-05 1.0036475e-05 8.33066e-06 5.329368e-06 0.00042574434

exp_avg f4 [16]
00000000: 34e4 9fbb 7ea0 47bb ec29 b0bb 5b1f a8ba
00000010: a8ea c9ba 068b 9eb9 5290 aabb 8f74 fcba
00000020: 52b2 0dbb 557d 373a c70a 52bb fc54 053a
00000030: b3f8 da3a f30f 0a39 e840 58bc ae0f 95bb
-0.004879499 -0.003046065 -0.005376091 -0.0012826727 -0.0015405016 -0.0003023969 -0.0052051926 -0.0019260811
-0.002162118 0.0006999572 -0.003204988 0.0005086211 0.0016706198 0.00013166647 -0.013199069 -0.0045489883

exp_avg_sq f4 [16]
00000000: 12fc 2339 e972 5b38 3d43 3a39 ac6c 5c3a
00000010: 7251 aa38 ff46 5038 c398 6138 1138 4938
00000020: 4b7f 1a37 153c 3838 df48 0d38 d6f4 9e37
00000030: 9f22 2e37 6291 2137 2d52 9039 33f4 5d39
0.00015638795 5.2320687e-05 0.0001776339 0.00084085274 8.121402e-05 4.9657185e-05 5.378645e-05 4.797435e-05
9.208753e-06 4.3924974e-05 3.3684886e-05 1.8949078e-05 1.0379269e-05 9.630197e-06 0.00027527046 0.00021167174

exp_avg f4 [5, 16]
00000000: b562 92ba b42c 2d3c b138 3a3c 0ac8 afbb
00000010: 57af 303c ce13 a33b 6d91 6139 9e32 b739
00000020: 1b29 8639 15ae b8ba be71 25bb 1e68 6fbb
00000030: e2c1 c6ba d171 8839 f838 50bb e41f ebbc
00000040: d81d 99bc eaf3 81bb ddb4 783b 762b 913a
00000050: 740f 00bb 2cec 30bb c582 f1bb 82cd bbbb
00000060: 6bcb e1bb 6fd4 f0b9 6f4a deb9 0b81 7b3b
00000070: 00a1 b2b8 4aaa 24b9 f7e3 243c cdca 163b
00000080: 9991 15bb 771d 18bc f536 da38 cf48 4d3c
00000090: b330 e2ba e9aa 013a 1808 d0bb 910f 67bb
000000a0: 6038 b8bb a1c9 92bb 490f 64bb 1da0 eaba
000000b0: 4ab5 0dbb cf2a 75bb abf8 d5bb d84c 233c
000000c0: 55d8 21bc 15a9 07bb c1b3 0cba 5abc 103b
000000d0: 20d7 14bb 1467 8e3b 011d 9eba cd43 c73b
000000e0: 325e 20ba be82 7a3a 61fd 173a dfc9 41b8
000000f0: 2e64 883a 28c9 783a a090 f4bb 8110 c83b
00000100: 069c 843b a2da 103c 61d2 dab9 67da 47bb
00000110: bac7 d3ba 934a 9cbb 12b6 b63a b80c 05bb
00000120: 8099 8f3a 2d0b 413b d3d0 a23b 28d7 ca39
00000130: 2db3 e13a b518 adb8 803e 803c 920a 783b
-0.0011168333 0.01056974 0.011366055 -0.0053644227 0.010783992 0.004976726 0.00021511847 0.00034942193
0.00025589098 -0.0014089966 -0.0025244798 -0.0036530565 -0.0015163983 0.0002602474 -0.0031772237 -0.02870173
-0.018690988 -0.0039658444 0.00379496 0.0011075574 -0.001954046 -0.0026996238 -0.0073703253 -0.0057312855
-0.0068907044 -0.00045934643 -0.00042398597 0.0038376476 -8.51769e-05 -0.00015703696 0.010064117 0.0023009062
-0.0022822379 -0.009284369 0.000104052866 0.012529566 -0.0017256945 0.0004946427 -0.006348621 -0.003525708
-0.005621955 -0.0044796024 -0.003479915 -0.0017900501 -0.002162295 -0.003740955 -0.0065298877 0.009967051
-0.009878238 -0.0020700146 -0.00053673616 0.0022084923 -0.0022711232 0.004345784 -0.0012063087 0.0060810805
-0.0006117552 0.0009556225 0.0005797949 -4.6202793e-05 0.0010405832 0.0009490424 -0.0074635297 0.006105483
0.0040469198 0.008841189 -0.00041736945 -0.0030495168 -0.0016157546 -0.004769632 0.0013939759 -0.002030177
0.0010955781 0.0029456124 0.0049687414 0.00038688746 0.0017219536 -8.253885e-05 0.015654802 0.0037848097

exp_avg_sq f4 [5, 16]
00000000: ce9f fc38 305d c139 39bb 453a 3592 843a
00000010: b220 323a 2a48 353a ffed 3f3a a8e9 593a
00000020: a114 203a 383c 493a 49c9 5a3a 3bc3 a639
00000030: f6cc ee38 2041 a339 246d 683a 4df9 173b
00000040: 67b4 bc3a 02e0 8938 194b c637 6eeb 4036
00000050: cae4 b137 9ebc 7937 a8d0 263a 2a50 273a
00000060: 96c5 0b3a 9654 013a 6ab6 0f3a f233 8339
00000070: 423a 9838 477d 7839 7e97 1039 1d4a 1139
00000080: 6e1a 513a 8a6d 8439 5d81 ff38 fb3c 2d39
00000090: 8ad3 8938 a469 8d37 b3ae fe39 3473 b639
000000a0: 878f d539 949f 8939 3088 a239 5a1f 0939
000000b0: 0f8c 1738 cb6b 0339 7390 5e39 39a2 4e39
000000c0: 57fc e239 b66a 3c38 272d 0038 5ccd 2038
000000d0: 1a4d c138 a22e 5a38 212b 033a c054 8039
000000e0: 72db d939 d307 5b38 ea1a cc37 7834 7536
000000f0: 54db 1f37 ecd6 0538 14cf fb38 96e5 4f38
00000100: 7ae7 3538 45e0 9039 bbc3 9f3a a3c3 ae3a
00000110: 9b92 533a b081 713a 5285 3c39 7883 4d39
00000120: 79cd 1a39 6017 2e39 63dc 4739 016a 8438
00000130: fc1c 9e37 e2fd 9938 7d24 ab3a 7706 743a
0.00012046062 0.0003688126 0.0007542852 0.0010114374 0.0006795033 0.00069153553 0.0007321536 0.00083127106
0.00061065896 0.0007676515 0.0008346034 0.00031807445 0.00011386901 0.00031138305 0.0008866361 0.0023189366
0.0014397026 6.574394e-05 2.363841e-05 2.8747268e-06 2.1206582e-05 1.4885472e-05 0.00063634897 0.000638249
0.0005331872 0.0004933564 0.0005482199 0.0002502497 7.258776e-05 0.00023697792 0.00013789345 0.00013855887
0.00079766556 0.00025258615 0.00012183443 0.00016521283 6.572071e-05 1.6857703e-05 0.00048576816 0.00034799578
0.00040733462 0.0002624957 0.00031000515 0.00013077018 3.6131645e-05 0.0001253329 0.00021225381 0.00019706124
0.00043294087 4.4922075e-05 3.055963e-05 3.833823e-05 9.2173184e-05 5.201868e-05 0.000500368 0.00024477206
0.00041552965 5.2220956e-05 2.4331228e-05 3.6538386e-06 9.528205e-06 3.1909833e-05 0.00012007184 4.9566464e-05
4.3369342e-05 0.00027632914 0.001218907 0.0013333451 0.0008070857 0.00092127454 0.00017978743 0.000195993
0.00014763129 0.00016602641 0.0001906022 6.313995e-05 1.8848565e-05 7.342898e-05 0.0013057139 0.00093088247

exp_avg f4 [5]
00000000: db66 b03b 36e1 90bb 4305 8ebc db77 11bc
00000010: 8f6b 393c
0.005383355 -0.0044213785 -0.017336493 -0.008878673 0.011317148

exp_avg_sq f4 [5]
00000000: 8870 083a 1eb7 013a fbb2 3d3a 6e7c 8d39
00000010: f5d4 d739
0.0005204757 0.0004948246 0.0007236448 0.00026986323 0.0004116666
