mase_output/jsc-tiny_classification_jsc_2024-01-26/software/training_ckpts/best-v4.ckpt (torch, 10778 bytes, 14 tensors)

model.seq_blocks.0.weight f4 [16]
000000 b8 de b8 3f c9 82 8d 3f d7 a0 ad 3f 45 c0 c0 3f
       1.4442968 1.1055537 1.356471 1.5058676
000010 c2 9d a2 3f 77 4b a4 3f 54 ba 93 3f 26 56 90 3f
       1.2704394 1.283553 1.1541238 1.127629
000020 37 bf 88 3f 8c 94 98 3f 7c ff 93 3f 5d 7f 75 3f
       1.0683354 1.1920333 1.1562343 0.95897466
000030 a8 f4 51 3f 09 c4 63 3f 28 2c 9a 3f a3 ca b4 3f
       0.8201394 0.88971 1.2044725 1.412434

model.seq_blocks.0.bias f4 [16]
000000 47 cd 8c 3e a4 38 0e 3e 59 43 02 3f 37 81 b4 3e
       0.27500364 0.13888794 0.50884014 0.35254833
000010 5f 7a 60 3e a7 15 86 3e 06 c0 a3 3e 4d ff 98 3e
       0.21921681 0.26188394 0.3198244 0.2988228
000020 8c 11 56 3e 1b 57 54 3e 23 f7 b2 3e 27 f7 d1 bd
       0.20905131 0.20736353 0.34954175 -0.10252219
000030 01 e4 65 be cc 5f a3 3d c0 a3 0a 3f da 3d 8e 3e
       -0.22450258 0.07977256 0.5415611 0.27781564

model.seq_blocks.0.running_mean f4 [16]
000000 3e 4d 4e 3c af 9e a6 bc d5 5b 8a bc 92 8c 7c bc
       0.012591658 -0.020339338 -0.016889492 -0.015414374
000010 a2 6f 8e bc 94 6f a6 bc aa 4a 12 bb 4a e6 bd bb
       -0.017387215 -0.020316876 -0.0022322335 -0.005795275
000020 aa 4a 12 bb f2 d9 94 bb 48 2d 58 bb 30 f1 ce bb
       -0.0022322335 -0.0045425827 -0.0032985974 -0.006315373
000030 05 df a4 bb 0e c6 10 bc 43 18 9c bc fc 2b 2c bc
       -0.005031469 -0.008836282 -0.019054538 -0.010508534

model.seq_blocks.0.running_var f4 [16]
000000 fe 47 80 3f 89 e1 87 3f 5e 5c 7c 3f 4f 81 7b 3f
       1.002197 1.0615703 0.9857844 0.98244184
000010 dc 24 7c 3f bd 58 76 3f 72 fd 7f 3f 03 48 80 3f
       0.9849374 0.96229154 0.999961 1.0021976
000020 72 fd 7f 3f 84 08 81 3f 82 56 81 3f 5b 33 80 3f
       0.999961 1.0080724 1.0104525 1.0015672
000030 73 3a 81 3f 53 34 80 3f 4c eb 7b 3f 8d 28 78 3f
       1.0095962 1.0015968 0.9840591 0.96936876

model.seq_blocks.2.weight f4 [5, 16]
000000 66 b3 a1 be 23 70 20 3e e1 61 71 be 17 0a d5 3d
       -0.31582183 0.15667777 -0.23572494 0.10402315
000010 7a fd 08 be c9 6b 7b 3d 53 38 aa 3d 64 4c b1 3e
       -0.13377944 0.06138209 0.08311524 0.34628594
000020 9c fe 68 3d a6 d9 a7 3e f8 76 52 3e 61 84 47 3e
       0.05688344 0.3278324 0.20553195 0.19484092
000030 b4 04 13 3c c7 cf 4d 3c 22 40 38 3e e1 f2 0b 3f
       0.008973289 0.012561745 0.17993215 0.5466748
000040 54 a3 01 3f 95 9d 87 bd 97 43 15 bf 50 38 a3 be
       0.50639844 -0.06621853 -0.5830626 -0.318789
000050 a9 6d 1a be f1 94 da 3d c9 51 7f 3c 78 fa 91 3e
       -0.15080895 0.106729396 0.015583464 0.28511405
000060 c3 5b bf 3c 5d 81 01 3e 7b 7e b8 3e 5e 67 0e bd
       0.023359185 0.12647004 0.36033997 -0.034766547
000070 57 b8 f1 bd af bf be 3d 8b b6 14 bf 23 f2 2e be
       -0.11802738 0.093139045 -0.5809104 -0.17084555
000080 34 55 b4 3d 3e aa aa 3e 48 93 47 bd 5a f4 61 bf
       0.08805314 0.3333301 -0.048724443 -0.88263476
000090 e6 d4 0a be eb 65 a3 3a ae e6 11 3e a8 36 03 3c
       -0.13557777 0.0012466287 0.14248154 0.0080086365
0000a0 df 78 02 3d 11 cb a1 bd e6 cb 42 3e 02 1a 26 be
       0.031853553 -0.0790006 0.19023094 -0.16220859
0000b0 d2 26 32 be 3e a7 e4 bd 63 61 a6 3e d0 47 b8 be
       -0.17397621 -0.111647114 0.32496175 -0.3599229
0000c0 9a c7 02 3e 6e 30 43 3d a2 1b 06 3e 6f 8d 97 3d
       0.12771454 0.047653608 0.13096479 0.07400023
0000d0 de ff 0b 3e cf 6b 94 bd 7c 6c a0 3e ed 9b ba bd
       0.13671824 -0.07247125 0.31332767 -0.09111772
0000e0 36 1c 40 3e 2a 25 15 be 5c 40 06 be d5 8d de bd
       0.18760762 -0.14564958 -0.13110489 -0.10866896
0000f0 3a ec 07 3e 9f 24 0b 3e 7b d3 6a bd 40 22 09 be
       0.13273707 0.13588189 -0.05733059 -0.13391972
000100 70 e9 30 be 20 b0 76 ba 4a 73 8a 3e 48 94 9f 3e
       -0.1727655 -0.00094104 0.27041084 0.31167817
000110 b7 44 bb 3e 0e e9 f7 3e 22 1b a6 be e4 b5 11 3d
       0.36575863 0.48419994 -0.32442576 0.035573855
000120 31 29 b8 bc 49 b2 d2 3d 5a 37 99 3c 8d 00 49 3e
       -0.02248058 0.102879114 0.018703151 0.19629116
000130 c0 7c 71 bd 56 54 e6 bd 2f 1b e4 3d dc 33 f8 bd
       -0.05895686 -0.112465546 0.11137997 -0.121192664

model.seq_blocks.2.bias f4 [5]
000000 b9 46 3e be aa d7 3c 3e ae 53 19 3f dc 0a bc bd
       -0.18581666 0.18441644 0.5989331 -0.09181759
000010 6a cb 3b be
       -0.18339315

exp_avg f4 [16]
000000 d0 49 38 bc 28 88 3b bb ae 73 49 3a ea 4d f7 bb
       -0.011248067 -0.002861509 0.0007684779 -0.00754713
000010 11 27 34 3b a9 4e 10 3b c7 2c 3e bb 0e c2 2a 3b
       0.0027489106 0.0022019541 -0.0029018389 0.0026055607
000020 f7 89 98 ba 75 ec 05 3b ab 67 42 b9 52 08 10 3b
       -0.0011637796 0.0020435129 -0.00018539901 0.0021977616
000030 35 02 79 39 7d 46 06 39 b9 e1 91 b9 c0 80 82 bc
       0.00023747313 0.00012805495 -0.00027824732 -0.015930533

exp_avg_sq f4 [16]
000000 fb bc 35 39 84 02 5b 37 4f 20 95 38 0c 49 bf 38
       0.00017331906 1.3054003e-05 7.1108916e-05 9.121196e-05
000010 81 53 ba 38 0d 5b c3 38 dd 67 ef 37 6c 76 57 38
       8.884725e-05 9.315284e-05 2.8539385e-05 5.1370283e-05
000020 36 05 ab 36 56 5a 2b 38 f7 5c a8 37 12 ce da 37
       5.0968038e-06 4.085371e-05 2.007045e-05 2.6083584e-05
000030 1c 47 eb 36 6d c9 1d 37 b4 c2 fd 36 35 45 cb 39
       7.011824e-06 9.404827e-06 7.562654e-06 0.0003877074

exp_avg f4 [16]
000000 dc ff 45 bc e8 60 ed bb bb 3b 75 bc 00 b0 3d b9
       -0.012084927 -0.007244218 -0.014967854 -0.0001809001
000010 27 e9 8f bb 01 d0 7e b9 bc 56 10 bc 7c ac 62 ba
       -0.0043918076 -0.00024300815 -0.008809742 -0.0008646918
000020 c0 32 45 bb 3e 72 32 3b 3d 9a 4b bb b8 ee e2 3a
       -0.0030090064 0.0027228738 -0.0031067275 0.0017313575
000030 47 5a fd 39 ca ba 81 ba 43 17 29 bc d5 1b ab bb
       0.00048323182 -0.0009897586 -0.010320487 -0.0052218237

exp_avg_sq f4 [16]
000000 9b 71 24 39 7f 51 4c 38 a5 e6 70 39 14 a0 75 3a
       0.0001568258 4.871329e-05 0.00022974105 0.0009369862
000010 5d 9f a7 38 eb bf 53 38 e0 d7 37 38 45 29 51 38
       7.992864e-05 5.0485058e-05 4.383165e-05 4.986792e-05
000020 37 7e ca 36 82 f4 2e 38 56 36 13 38 c2 4b 9c 37
       6.0347625e-06 4.171255e-05 3.5098135e-05 1.8631927e-05
000030 74 8b 03 37 3b 62 3b 37 86 cf 8e 39 08 29 57 39
       7.840677e-06 1.116894e-05 0.00027238968 0.00020519283

exp_avg f4 [5, 16]
000000 44 52 a1 3a 69 d9 e5 3b 7d 01 ba 3a 35 21 c2 bc
       0.0012307842 0.0070144427 0.0014191117 -0.023697475
000010 64 cb 81 3b f5 e8 35 bb d1 6a 06 3b a4 29 40 3b
       0.0039610136 -0.0027757261 0.0020510445 0.0029321695
000020 5f 14 e0 3a 7a 8e dc 3a ba 82 cf 3a 7a bb 47 39
       0.0017095915 0.0016827129 0.0015831806 0.0001904796
000030 f7 a0 1a 3a 2d 6b 85 3b 20 d8 13 bc a9 2a 09 bd
       0.00058986194 0.0040716142 -0.009023696 -0.03348795
000040 30 6e ac bc 50 38 83 bb 0c e5 a0 3b 15 fe b0 3a
       -0.021048635 -0.0040045157 0.004910117 0.0013503457
000050 e2 ea fa 3a 5b db d2 38 fb e2 9b 3b 23 eb 85 3b
       0.0019143487 0.000100544385 0.004757283 0.0040868684
000060 60 37 8e 3b 6e fe 97 3a ef 55 32 bb 63 87 be 3a
       0.0043400973 0.0011596212 -0.0027211865 0.0014536198
000070 9e 54 cb 3a 58 dc 69 3a d0 86 1f 3c 93 d6 a2 3b
       0.0015512889 0.00089210784 0.009736732 0.004969427
000080 c5 8d cc bb 00 ab 53 bc 5a 73 0f bc 8e 98 4a 3c
       -0.006242486 -0.012919188 -0.008755529 0.012365473
000090 eb 86 cc bb 53 32 88 ba 1b c6 8e bc 98 29 2a bc
       -0.0062416694 -0.0010390974 -0.017428448 -0.010385893
0000a0 e6 b3 79 bc dc 37 19 bc 68 92 21 bc 10 90 c6 bb
       -0.015240645 -0.009351697 -0.009861566 -0.006059654
0000b0 ef 6c 90 bb 2d af eb bb ff 98 3d bc 8d 3c 9f 3b
       -0.004407517 -0.0071925134 -0.011572122 0.004859513
0000c0 38 d2 7c bd d7 29 df bc 7d 53 32 bd 8e cd f3 bb
       -0.061723918 -0.02724163 -0.043536652 -0.0074402755
0000d0 84 3c 99 bb 3c d5 95 3b c5 54 2c bc e7 48 ea bb
       -0.0046764035 0.0045725387 -0.0105182575 -0.007149804
0000e0 4c 0e 08 bc 29 cb f3 bb 5a 4b 03 bc 9a ba 5d bb
       -0.00830419 -0.00743999 -0.008013571 -0.0033833147
0000f0 a6 6a 42 bb 7e ed b1 bb 67 1e 5d bd 0e a1 fc 3b
       -0.0029665618 -0.0054299226 -0.053984072 0.007709629
000100 9a 15 91 3a 95 1e 03 3c d3 b6 d9 3b a3 03 19 3c
       0.001106906 0.008002897 0.006644109 0.009339246
000110 cd c3 0c 3c ff b2 db 3b 07 51 00 3b bc de 04 bb
       0.008591604 0.0067046876 0.0019579546 -0.0020274362
000120 2f ef ba 3a e8 e6 95 3b a7 b2 15 3c e1 e7 43 3b
       0.0014261956 0.0045746453 0.009136832 0.002989285
000130 f2 fd f7 3a a1 9d c5 3a 79 ea 89 3c 8e 39 8a 3c
       0.0018920286 0.0015076884 0.016835438 0.016873147

exp_avg_sq f4 [5, 16]
000000 39 24 1f 39 a0 5a a5 39 ed 76 53 3a a3 e8 86 3a
       0.00015176916 0.00031538773 0.00080667326 0.001029272
000010 26 97 38 3a c6 c4 36 3a 6a 1a 27 3a 7c af 5d 3a
       0.0007041566 0.00069720706 0.00063744804 0.000845663
000020 dd b2 f1 39 39 00 64 3a 02 24 78 3a f5 3a bc 39
       0.00046100366 0.0008697543 0.0009465815 0.0003590208
000030 f6 f0 37 39 a3 05 cb 39 48 9f 52 3a c9 4d 1f 3b
       0.00017542005 0.00038723377 0.0008034599 0.0024307838
000040 a8 c2 eb 3a ce 3a 93 38 e4 a5 65 38 27 26 cd 36
       0.0017987089 7.0204595e-05 5.4752352e-05 6.1139176e-06
000050 d2 4d 2a 38 ba 6c ea 37 6a 53 16 3a 78 d9 27 3a
       4.0603634e-05 2.7945604e-05 0.00057344756 0.000640295
000060 9f d9 dc 39 d9 ea 08 3a 34 ff 16 3a 7f 0a 8e 39
       0.0004212381 0.00052229833 0.0005760074 0.0002709217
000070 93 39 d0 38 53 6a 98 39 1f 85 35 39 2f d7 4b 39
       9.928937e-05 0.00029070917 0.00017311097 0.00019439751
000080 39 a3 5d 3a 4d 1d 70 39 ef dc 24 39 11 6c 32 39
       0.0008454803 0.00022899099 0.00015722563 0.0001701566
000090 79 76 87 38 80 90 88 37 77 e5 e5 39 54 6d af 39
       6.459369e-05 1.6279751e-05 0.00043849248 0.00033460057
0000a0 24 4e a8 39 e1 0d 87 39 3d 93 9e 39 5d f3 fb 38
       0.00032101676 0.00025759547 0.0003024581 0.000120139426
0000b0 45 07 3f 38 4b a2 0c 39 b2 1e 5a 39 4f c1 3e 39
       4.554472e-05 0.00013411899 0.00020801535 0.00018191825
0000c0 e9 bf 82 3a 16 6f 85 38 61 4a 3c 39 40 49 4c 38
       0.0009975407 6.3626256e-05 0.00017956785 4.870561e-05
0000d0 08 9c ab 38 27 02 3e 38 ab 76 cd 39 f4 bc 45 39
       8.1829785e-05 4.5301535e-05 0.00039189061 0.00018857775
0000e0 f0 51 97 39 d6 51 1b 38 8d 02 b2 37 18 79 a6 36
       0.00028862013 3.7031095e-05 2.1220441e-05 4.9612827e-06
0000f0 99 5d 1a 37 29 dc ef 37 b9 b0 aa 39 79 e4 2c 38
       9.200908e-06 2.859354e-05 0.00032556595 4.1220777e-05
000100 4d 2a c5 38 05 b6 85 39 7c 77 c7 3a 97 d0 d7 3a
       9.401571e-05 0.00025503352 0.0015218104 0.0016465363
000110 cc f6 77 3a 07 b6 8a 3a 72 3e 27 39 71 2b 42 39
       0.0009459078 0.0010582813 0.00015949624 0.00018517465
000120 ab d4 e8 38 44 5c 3f 39 e1 58 64 39 87 d6 99 38
       0.000111022346 0.00018249551 0.00021776884 7.335567e-05
000130 9d cf f7 37 b1 72 c2 38 0d 42 b2 3a 47 8b 7c 3a
       2.9541372e-05 9.272004e-05 0.0013600007 0.0009633791

exp_avg f4 [5]
000000 97 b4 47 3b 13 ad fb bb 08 a1 bc bc 04 71 88 bd
       0.003047263 -0.007680544 -0.023026004 -0.06662181
000010 fd d4 fe 3b
       0.007776855

exp_avg_sq f4 [5]
000000 90 9f 09 3a 9e 98 08 3a 40 30 5a 3a ec fa 14 3a
       0.0005249912 0.000521073 0.000832323 0.0005683142
000010 57 17 f2 39
       0.00046175226
