mase_output/jsc-tiny_classification_jsc_2024-01-26/software/training_ckpts/best-v3.ckpt (torch, 10650 bytes, 14 tensors)

model.seq_blocks.0.weight f4 [16]
0	0x3fa2852e	1.2696893
1	0x3f895593	1.072924
2	0x3fa29766	1.2702453
3	0x3fa372d0	1.2769413
4	0x3f9c16c6	1.219445
5	0x3f9cd0e7	1.2251252
6	0x3f870676	1.0548847
7	0x3f940e7a	1.1566918
8	0x3f7f99e9	0.99844223
9	0x3f956f19	1.1674529
10	0x3f8a8083	1.0820469
11	0x3f70c8a6	0.94056165
12	0x3f560dfc	0.8361509
13	0x3f75459f	0.9580936
14	0x3f982899	1.188739
15	0x3f95bfc7	1.1699151

model.seq_blocks.0.bias f4 [16]
0	0x3e0f369b	0.13985674
1	0x3d223db1	0.039609615
2	0x3e809673	0.25114784
3	0x3e85527f	0.26039502
4	0x3e059e1e	0.13048598
5	0x3e51b280	0.20478249
6	0x3e3bdd84	0.1834622
7	0x3e65feca	0.22460476
8	0x3d634da6	0.055493973
9	0x3e3b51c3	0.18292908
10	0x3e42b9f1	0.19016244
11	0xbdadb5cc	-0.084819406
12	0xbe3b7279	-0.18305387
13	0x3b883cf9	0.004157659
14	0x3e92d359	0.2867687
15	0x3db3c4ac	0.087777466

model.seq_blocks.0.running_mean f4 [16]
0	0x3c652a9c	0.01398721
1	0xbca3620d	-0.019944215
2	0xba329ede	-0.0006813834
3	0x3a7b3e8e	0.00095842115
4	0xbb19029d	-0.0023347505
5	0xba8287be	-0.0009958667
6	0xba73323b	-0.0009277199
7	0x3b3761a7	0.002798179
8	0xba73323b	-0.0009277199
9	0xbbdad136	-0.006677772
10	0xbbf0e506	-0.0073515205
11	0xb9f77cc7	-0.00047204478
12	0xbb9396ad	-0.004504046
13	0x3ae2c0c9	0.0017299886
14	0xb9802cc9	-0.0002444743
15	0xba512794	-0.0007978615

model.seq_blocks.0.running_var f4 [16]
0	0x3f802341	1.0010759
1	0x3f83d708	1.0299997
2	0x3f810741	1.0080339
3	0x3f80a372	1.004988
4	0x3f806862	1.0031855
5	0x3f7d64d5	0.9898198
6	0x3f8054eb	1.0025915
7	0x3f808182	1.0039523
8	0x3f8054eb	1.0025915
9	0x3f81248b	1.0089277
10	0x3f8052af	1.0025233
11	0x3f7f914c	0.9983108
12	0x3f8133a7	1.0093888
13	0x3f810cae	1.0081995
14	0x3f813a9d	1.0096012
15	0x3f8113e5	1.0084196

model.seq_blocks.2.weight f4 [5, 16]
0	0xbe8e5fd6	-0.27807492
1	0x3e96890a	0.29401428
2	0xbe0e3bef	-0.1389005
3	0xbc6ab1b0	-0.014324591
4	0xbd0f684e	-0.035011582
5	0x3dd27b71	0.10277451
6	0x3db52770	0.08845413
7	0x3eb0bdaa	0.34519702
8	0x3d8079f4	0.06273261
9	0x3e9c704b	0.30554423
10	0x3e364c43	0.17802529
11	0x3e2e5383	0.17024045
12	0xbcaa13ef	-0.020761458
13	0x3c9e231c	0.01930385
14	0x3de10ead	0.10989127
15	0x3eb02a09	0.3440707
16	0x3eb803dc	0.35940444
17	0xbd5fac22	-0.054607518
18	0xbeba9d26	-0.3644802
19	0xbe506cd4	-0.20354015
20	0xbd8b34b2	-0.0679716
21	0x3de62068	0.1123665
22	0x3c4ad28d	0.012379301
23	0x3e93b57f	0.28849408
24	0x3cad785e	0.02117556
25	0x3dd52725	0.10407857
26	0x3e9a2a1a	0.30110246
27	0xbd837d52	-0.06420387
28	0xbdd8a784	-0.10578826
29	0x3db439f1	0.08800114
30	0xbea67266	-0.32509154
31	0x3a243741	0.0006264337
32	0x3d263b09	0.040583644
33	0x3e1f3fd6	0.15551695
34	0xbdfb967f	-0.12284564
35	0xbf0d5971	-0.552146
36	0xbe2ea4f7	-0.17055117
37	0x3d935ecf	0.07195818
38	0x3e18a0fe	0.14905164
39	0x3d2a3037	0.041549888
40	0x3d2da0a0	0.042389512
41	0xbddecdfc	-0.10879132
42	0x3e1a1f26	0.15050945
43	0xbe53c1cc	-0.20679396
44	0xbe51ee96	-0.2050117
45	0xbe253cac	-0.16136426
46	0x3e5aa5df	0.21352337
47	0xbde43f31	-0.11144865
48	0xbdf4bb9e	-0.11949848
49	0xbd948de1	-0.07253624
50	0x3dae0691	0.08497346
51	0x3e2e5efc	0.17028421
52	0x3d0b822e	0.034059696
53	0xbcd8bdc3	-0.026457673
54	0x3e176cda	0.14787617
55	0xbe3b43ce	-0.18287584
56	0x3cea2199	0.028580474
57	0xbe6db62b	-0.23214023
58	0xbe5835f2	-0.21114329
59	0xbe2840da	-0.16430989
60	0x3d9e085e	0.0771644
61	0x3d7a9582	0.061177738
62	0xbe6040fc	-0.2189979
63	0x3c731ade	0.014837949
64	0xbd600afb	-0.05469797
65	0x3d4310f4	0.04762359
66	0x3e4e10c5	0.20123585
67	0x3e8101e4	0.25196755
68	0x3eaa8bf2	0.33309895
69	0x3edc6973	0.430492
70	0xbe7e002c	-0.24804753
71	0xbcb37494	-0.021906175
72	0x3d53b911	0.051690165
73	0x3dc1d13d	0.09463737
74	0x3d6e54a8	0.058186203
75	0x3e052838	0.13003623
76	0xbd52c04e	-0.051452927
77	0xbe54d16c	-0.20783013
78	0x3e298d48	0.16557801
79	0xbdb3b7a5	-0.08775262

model.seq_blocks.2.bias f4 [5]
0	0xbe00aa79	-0.1256503
1	0x3e23c3c3	0.15992646
2	0x3ee6e492	0.4509626
3	0xbea0d23a	-0.3141039
4	0xbde9d3ab	-0.114173256

exp_avg f4 [16]
0	0xbc32ccff	-0.010913133
1	0xb8d1516b	-9.981062e-05
2	0xbb7d29fd	-0.0038629763
3	0xbbdcd26f	-0.006738953
4	0xbb5f34eb	-0.0034058641
5	0xbb9d76f9	-0.0048054424
6	0x3996e0b7	0.00028777655
7	0x3990e3b9	0.00027635487
8	0x3949fa06	0.00019261995
9	0xbb337032	-0.0027380106
10	0xbb24b3d2	-0.0025131595
11	0xbab10c18	-0.0013507633
12	0x38e36e4e	0.00010844749
13	0x3a25a4ee	0.0006318827
14	0xbac14680	-0.0014745742
15	0xbc833c5c	-0.016019993

exp_avg_sq f4 [16]
0	0x39717963	0.00023028771
1	0x378b10b9	1.6577878e-05
2	0x3885190c	6.3465995e-05
3	0x38b1f819	8.4862295e-05
4	0x38e09165	0.00010708234
5	0x392ffa10	0.00016782456
6	0x376eb0cf	1.4227072e-05
7	0x387a7760	5.971582e-05
8	0x35e985e3	1.7398819e-06
9	0x384df18a	4.910076e-05
10	0x37cb2311	2.4215815e-05
11	0x37dd7ec0	2.6404276e-05
12	0x37408b5b	1.1476538e-05
13	0x3745ac88	1.1782286e-05
14	0x37e2ff18	2.7060087e-05
15	0x39924f19	0.00027906222

exp_avg f4 [16]
0	0xbbf66b9f	-0.0075201537
1	0xb9bb130b	-0.00035681608
2	0xbc1019ff	-0.00879526
3	0xbbcdf95b	-0.006285829
4	0xb920acd4	-0.00015323173
5	0xbb2501e7	-0.0025178136
6	0xbaad4fbb	-0.0013222614
7	0xbb6d6bc6	-0.0036227568
8	0xb98f499d	-0.00027329932
9	0xbb01be31	-0.00197972
10	0xbb773e20	-0.0037726238
11	0xb9a4eee9	-0.0003145852
12	0x3a0c509a	0.0005352587
13	0xbadb307d	-0.0016722825
14	0xbc969625	-0.018382141
15	0xbbd5d735	-0.006525899

exp_avg_sq f4 [16]
0	0x38f44e07	0.000116493604
1	0x3829e936	4.0509934e-05
2	0x38d17bbe	9.9889454e-05
3	0x39d07561	0.00039760306
4	0x385d9dd1	5.2837484e-05
5	0x387dd6fe	6.0520128e-05
6	0x37d7b6f2	2.5715188e-05
7	0x38b033c8	8.401979e-05
8	0x35fc6117	1.880372e-06
9	0x3835f9e9	4.338651e-05
10	0x380d0dab	3.362975e-05
11	0x37a761d6	1.995351e-05
12	0x37710622	1.4366147e-05
13	0x3775a97c	1.4642599e-05
14	0x39beffbd	0.00036430164
15	0x38aeed44	8.341161e-05

exp_avg f4 [5, 16]
0	0x3bd040cb	0.00635538
1	0x3bd699b8	0.0065490864
2	0x3bb39fc0	0.00548169
3	0xbc5053cd	-0.012715292
4	0x3bde52ce	0.0067847734
5	0x3b7e94a7	0.0038845928
6	0xb803fede	-3.1470197e-05
7	0xbb1dae25	-0.0024060097
8	0x3969934f	0.00022275488
9	0xbc349bc7	-0.011023468
10	0xbc5093ef	-0.012730583
11	0xbbe6bf27	-0.00704183
12	0xbbd0d626	-0.0063731847
13	0xbb9233c1	-0.004461736
14	0xbc0fbcde	-0.008773057
15	0xbd54c836	-0.05194875
16	0xbd0c42d6	-0.034243427
17	0x3baa2cc7	0.005193326
18	0x3c1f1ada	0.009710992
19	0x3b1008e5	0.0021977958
20	0x3bc9b7a9	0.006155927
21	0x3b0b6cce	0.002127457
22	0x392bd977	0.00016388843
23	0xb9dad94a	-0.00041742093
24	0x39b114d6	0.00033775595
25	0xbb053502	-0.0020325785
26	0xbb8a8843	-0.0042276694
27	0xbbaa2a11	-0.005193003
28	0x3a6c45f6	0.00090131105
29	0xbb52752e	-0.0032113302
30	0x3c82f519	0.015986012
31	0x3c856a94	0.016286172
32	0xbc1c0fc5	-0.009525244
33	0xbc43ec17	-0.011958144
34	0xbb4ffefa	-0.0031737671
35	0x3c28f049	0.010311195
36	0xba00612f	-0.0004897294
37	0x3ae27c9e	0.001727957
38	0x3b497a78	0.0030743163
39	0x3bc39f3f	0.0059699113
40	0x3b599877	0.0033202448
41	0xb9535b70	-0.00020156591
42	0xba8deb5b	-0.0010827588
43	0x3a093819	0.00052344945
44	0x3913a950	0.00014082086
45	0x3964fdc6	0.00021838312
46	0xbbc5dfa4	-0.006038623
47	0x3c29b6a0	0.010358483
48	0xb91f0c75	-0.00015168062
49	0x38e9fd7d	0.00011157522
50	0x3a034db8	0.00050088344
51	0x3a232def	0.0006224801
52	0x396aa23f	0.0002237642
53	0x398bdacc	0.00026675162
54	0xba885895	-0.0010402376
55	0xb9cb3f43	-0.0003876631
56	0xba7b1e43	-0.00095793995
57	0x371a1f56	9.186411e-06
58	0x372d0779	1.0313343e-05
59	0x35e54e39	1.7084595e-06
60	0xb83eaa7e	-4.5458313e-05
61	0x367b0159	3.74027e-06
62	0x399e3a3b	0.00030179493
63	0x39589f03	0.00020658602
64	0x3c12d9cb	0.008963059
65	0x3af33aae	0.0018556917
66	0xbc846e31	-0.016165825
67	0xbc8f2a17	-0.017476125
68	0xbc31cb91	-0.010851757
69	0xbc885028	-0.016639784
70	0x3a815c02	0.0009869339
71	0xbbc6c7aa	-0.0060662823
72	0x3a4bc27f	0.00077728176
73	0xb84741f0	-4.7506706e-05
74	0x3b932ba8	0.004491288
75	0xbb09d87f	-0.0021033583
76	0x398548e7	0.00025422053
77	0xbb9d4197	-0.0047990787
78	0x3b4139af	0.0029483845
79	0x3b7a7048	0.0038213897

exp_avg_sq f4 [5, 16]
0	0x3980d1a0	0.00024570245
1	0x39887a98	0.0002603128
2	0x39ff226d	0.0004866304
3	0x3a289479	0.00064308156
4	0x3a0870c2	0.00052047905
5	0x3a13a9c7	0.0005632904
6	0x3a1cca53	0.00059810764
7	0x3a876a4e	0.0010331364
8	0x39fc7507	0.00048152378
9	0x3ab54f99	0.0013832926
10	0x3aaab433	0.0013023674
11	0x3a295849	0.0006459994
12	0x3a05fadc	0.00051109283
13	0x3a28da6c	0.0006441239
14	0x3a2dd0ca	0.0006630538
15	0x3b9247f2	0.004464143
16	0x3b565c78	0.0032708924
17	0x399abf93	0.00029515903
18	0x3936c093	0.00017428612
19	0x382475df	3.9210423e-05
20	0x39404a29	0.00018338174
21	0x38f3cc85	0.00011625238
22	0x3a034bf8	0.00050085736
23	0x3a3a1297	0.0007098107
24	0x39d75d9f	0.0004107775
25	0x39fea3fa	0.00048568827
26	0x39d4b3d4	0.00040569773
27	0x39cb85d7	0.00038818896
28	0x3919fd11	0.00014685492
29	0x39d45aa6	0.0004050333
30	0x39afc57f	0.00033525747
31	0x3a10534e	0.00055055774
32	0x3a3bd3dd	0.0007165054
33	0x39a444a3	0.00031331656
34	0x3898e1c8	7.28998e-05
35	0x389c9d1b	7.467923e-05
36	0x384b7285	4.8505626e-05
37	0x379e08d0	1.8839171e-05
38	0x39a7f185	0.00032032668
39	0x397a2335	0.00023854974
40	0x39893c9e	0.0002617584
41	0x38ed4339	0.00011313562
42	0x38d78f5c	0.00010278702
43	0x38094467	3.272705e-05
44	0x37ef4e71	2.8527547e-05
45	0x38592867	5.177446e-05
46	0x38ead83d	0.00011198267
47	0x39194062	0.00014615202
48	0x34300a93	1.6395124e-07
49	0x36ec2194	7.037257e-06
50	0x386f1e08	5.701001e-05
51	0x38a130d4	7.686173e-05
52	0x38451884	4.6991292e-05
53	0x3846a7c9	4.736314e-05
54	0x36ec0d8d	7.0349256e-06
55	0x361825b7	2.2671718e-06
56	0x36d46b76	6.3306024e-06
57	0x3605a1c7	1.9912711e-06
58	0x35d62364	1.5954543e-06
59	0x361541d6	2.2241052e-06
60	0x36082f37	2.0293062e-06
61	0x36453cd4	2.9390694e-06
62	0x384f5865	4.943497e-05
63	0x379f0a43	1.8959056e-05
64	0x39ed9993	0.00045318584
65	0x3968e726	0.00022211354
66	0x3b3648b9	0.0027814342
67	0x3b5e886c	0.0033955825
68	0x3b0911d2	0.0020915163
69	0x3b2a40a0	0.002597846
70	0x391d4e3e	0.00015001834
71	0x395b0908	0.00020888832
72	0x38f3786a	0.00011609572
73	0x396f40d5	0.00022816968
74	0x3999b9ff	0.00029321012
75	0x391fa351	0.00015224262
76	0x38a7c028	7.9989724e-05
77	0x39153336	0.00014228825
78	0x3ae3c63a	0.0017377802
79	0x3a2070a8	0.0006120303

exp_avg f4 [5]
0	0x3c1b2704	0.009469751
1	0x39998fff	0.0002928972
2	0xbcec197e	-0.02882075
3	0xb8c53089	-9.4027324e-05
4	0x3c11c882	0.008897902

exp_avg_sq f4 [5]
0	0x3a39f4b4	0.00070936535
1	0x3a1ea268	0.0006051422
2	0x3b087b0d	0.0020825297
3	0x37908646	1.7228664e-05
4	0x3a308fcd	0.0006735295
