mase_output/jsc-tiny_classification_jsc_2024-01-26/software/training_ckpts/best-v8.ckpt (torch, 10778 bytes, 14 tensors)

model.seq_blocks.0.weight f4 [16]
00000000: 2691 a03f df8a aa3f bc32 6940 2d73 a040
00000010: 3e3e ef3f eaee f1bf e9d0 e73e ec8a 383f
00000020: 43d2 423f 43f2 943f 7e82 a93f 9f83 a03f
00000030: 0ea5 2e3f a4c3 3c3f 69aa 8740 d0d4 a93f
1.2544296 1.332363 3.6437216 5.0140595 1.869087 -1.8901036 0.45276573 0.7208698
0.76102084 1.1636432 1.3242948 1.2540168 0.68220603 0.73736024 4.239552 1.326807

model.seq_blocks.0.bias f4 [16]
00000000: 2f58 7e3f 5bf1 3a3f 695c df3f 96b4 823f
00000010: 9634 bb3f 22e9 a3be 01cf fe3e d8bd 543f
00000020: 4645 e5be 2fd2 59bf 641f 1340 28ca fd3e
00000030: 0296 f33e a6c6 1abf 6a97 14bf fae8 ab3f
0.9935331 0.7302453 1.7450076 1.021136 1.4625423 -0.32013804 0.49767306 0.8310218
-0.44779414 -0.8508634 2.298791 0.49568295 0.47575384 -0.60459363 -0.5804354 1.3430474

model.seq_blocks.0.running_mean f4 [16]
00000000: 5434 923b 31a9 e63b e754 5fbc 93a7 6ebc
00000010: 612a d6bc e3ec b4bc 06b1 9cbc 30a3 76bc
00000020: 06b1 9cbc cc21 29bc 95a2 dfbb 5c28 57bb
00000030: 593d 5fbc c5af 39bc b914 37bc a0e4 82bc
0.0044618044 0.007039212 -0.013631082 -0.01456632 -0.026143255 -0.022085613 -0.01912738 -0.015053555
-0.01912738 -0.010322999 -0.006824801 -0.0032830453 -0.013625466 -0.011333411 -0.011174374 -0.015978158

model.seq_blocks.0.running_var f4 [16]
00000000: 98d0 753f 8f74 763f 60a4 7b3f ba0f 7c3f
00000010: f0d6 773f d0e6 7c3f 6218 783f ea55 7d3f
00000020: 6218 783f b8f1 803f 4ea2 803f 353c 813f
00000030: bd2f 7f3f 8476 803f 3327 7c3f 28e1 733f
0.96021414 0.96271604 0.9829769 0.98461497 0.96812344 0.9878969 0.96912205 0.9895922
0.96912205 1.0073767 1.0049531 1.0096499 0.9968222 1.0036168 0.98497313 0.95265436

model.seq_blocks.2.weight f4 [5, 16]
00000000: 5d9f aabd 89b0 a93d 16b3 52be 8066 3cbe
00000010: df15 17be ed49 813c 4d89 d8bd 913d c73d
00000020: 8589 fbbd 4c7b 873d acbb 9abd 7048 49bd
00000030: 4d84 94be a291 84be e80e d3bd b104 2cbd
00000040: b96d 853f 1718 323f 03e5 a5bf 85fe f0c0
00000050: 327a ad3e 5980 f2be e226 f4be d933 4fbe
00000060: 527c 1d3e 6ebc 04bf 2217 3e3f e134 10bf
00000070: 144c b93e 57bf b13e b8e4 7cc1 461a 73bf
00000080: 4e88 fcbd 5c7a e9bd 55e7 993f 2a8f a7c0
00000090: e6e3 8a3f 0587 0c3f 9dc5 453f 9f22 4ebf
000000a0: aebe 45be 349e c9bd fa44 fabd 425d 593e
000000b0: c793 9ebd 59b5 4dbc 482d 5bc0 19ae d6bf
000000c0: e812 7abe 310c 1fbe c9e3 04bc 0e1a 693d
000000d0: afb7 17bd fed1 c4bd b7dc 423e 34bd 87be
000000e0: b706 983d a3e1 9ebe 3aab 98be 8952 73be
000000f0: 9bb8 a8bb cc37 7ebc f5d2 8fbe 08de 68bd
00000100: d1d0 e4bf a41c abbf c70a 1740 a471 66bf
00000110: c82b ab3f 2aff 19c0 b484 c4be 65c0 f23e
00000120: 123a 84bf 5edf 1dbf 320e 21c0 6d37 d23f
00000130: 1ba2 8cbf 7001 81bf 789a 07bf 3400 14bf
-0.083311774 0.082856245 -0.20576128 -0.18398476 -0.14754437 0.01578232 -0.10573063 0.0972854
-0.12282089 0.06615314 -0.07555327 -0.049141347 -0.29007187 -0.2589236 -0.103055775 -0.04199666
1.042411 0.6956801 -1.2960514 -7.5310693 0.3388229 -0.47363546 -0.47685915 -0.20234622
0.15379456 -0.5185002 0.7425405 -0.56330687 0.36190856 0.34716293 -15.80584 -0.94961965
-0.123306856 -0.11400291 1.2023722 -5.236226 1.0850799 0.54893523 0.7725466 -0.8052158
-0.1931102 -0.09844628 -0.122201875 0.21226981 -0.0774303 -0.012555444 -3.4246387 -1.677188
-0.24421275 -0.15531994 -0.008110949 0.056909613 -0.03704041 -0.09610365 0.19029509 -0.26511538
0.07423156 -0.31031522 -0.29818135 -0.23761953 -0.00514896 -0.015516233 -0.28090635 -0.05685237
-1.7876226 -1.3368115 2.3600328 -0.9001715 1.3372736 -2.406199 -0.38382494 0.4741241
-1.0330222 -0.61668956 -2.5164914 1.6423165 -1.0986971 -1.0078564 -0.52970076 -0.5781281

model.seq_blocks.2.bias f4 [5]
00000000: 767a aabe 3718 82bf c7c7 ab3f b3fe c2be
00000010: d96d 493f
-0.33296555 -1.016364 1.3420342 -0.38084945 0.7868324

exp_avg f4 [16]
00000000: f48f 0bbb c373 d33a 1c0c 15bc a0f9 58b5
00000010: fcc9 a9ba 3b92 a538 f7fa 833a 75e3 f33a
00000020: e5fd 34bb 7b30 46ba fe66 9d3b 5ad9 a2bb
00000030: d870 8c3a 70ed 353a 125b 613b fcf5 a23a
-0.002129552 0.0016132522 -0.009097125 -8.082952e-07 -0.0012953873 7.895051e-05 0.00100693 0.0018607216
-0.0027617153 -0.0007560325 0.0048035374 -0.004969758 0.0010714782 0.0006939983 0.0034386558 0.0012432928

exp_avg_sq f4 [16]
00000000: af3e 103a 86ed 8939 29f7 403b 560e 9e3a
00000010: f2f8 803a 4794 2739 a7a9 3139 f9b5 6c39
00000020: 9be8 7f38 6851 6f38 b6fe 853a be50 8739
00000030: a5d2 be38 3733 a938 1b04 6039 235c 4c3a
0.00055025046 0.00026307645 0.0029444194 0.0012058716 0.0009839816 0.00015981599 0.00016943236 0.00022574504
6.101337e-05 5.7057856e-05 0.0010223005 0.00025809364 9.0991416e-05 8.0680875e-05 0.00021363834 0.0007795712

exp_avg f4 [16]
00000000: 87d2 e939 68a0 8c3a 905d f0b9 bc78 d13c
00000010: 3b29 04b9 e836 9a3a 8cc5 16b9 8bf5 55ba
00000020: 40bd c9ba ef38 92ba 3ea3 f03a bdb9 273a
00000030: 3f1d 0c3a ba00 7139 a9b5 403c 2e2e 62bb
0.00044598078 0.0010728957 -0.00045846077 0.025570266 -0.0001260386 0.0011765631 -0.00014378707 -0.0008161894
-0.0015391484 -0.0011155884 0.0018359197 0.00063982216 0.0005344934 0.00022983822 0.011762061 -0.0034512389

exp_avg_sq f4 [16]
00000000: c324 743a d3f5 3e3a 326c 053b d994 923c
00000010: 9a5a 783a ea63 573a 3e59 e339 bdb8 263a
00000020: f2ab 0138 a5be 1838 5397 2a3b 54bf e939
00000030: 71d8 9039 dc75 3d38 6da6 973b fef7 f03a
0.0009313339 0.00072845555 0.002035868 0.017893242 0.000947395 0.00082164875 0.00043363305 0.00063599256
3.0916133e-05 3.6417176e-05 0.0026030138 0.00044583774 0.00027627082 4.5170877e-05 0.004627994 0.0018384454

exp_avg f4 [5, 16]
00000000: 0400 0000 0400 0000 0000 0000 0000 0000
00000010: 0400 0000 0400 0000 0400 0000 0400 0000
00000020: 0400 0000 0000 0000 0000 0000 0000 0000
00000030: 0400 0000 0400 0000 0000 0000 0400 0000
00000040: f8ab 7c39 c0bb 113b 770c 7339 a28b 8536
00000050: c7e1 7838 1ebe e53a b3d6 343a 2abc 2f3b
00000060: 7294 9bba f4a1 4939 0da5 1f3c d4a8 b73b
00000070: 269d 333b 4a62 473a 20e6 1a37 a69e 603b
00000080: 0722 103c 3e45 98bb b928 c8bb 7fff f5ba
00000090: 2a94 18ba f262 8e3a edd3 b43a ecee b6b9
000000a0: 35a8 713a c5a6 dbba edbf 04bc dad1 a1bb
000000b0: 9ffd 43bb 52b1 b8ba 8b29 edb9 4ddf b9b8
000000c0: 0400 0000 0400 0000 0400 0000 0400 0000
000000d0: 0400 0000 0400 0000 0400 0000 0400 0000
000000e0: 0400 0000 0400 0000 0400 0000 0400 0000
000000f0: 0400 0000 0400 0000 0400 0000 0400 0000
00000100: ccb2 693a 3fbd 18ba 5e4b 38bc 063d 96bc
00000110: a1b8 ccba fbe7 0239 d102 6b3a 00d7 013b
00000120: 10d4 863a 43ab 8c37 32ba 69ba 1154 89ba
00000130: f22f 6939 b171 beb8 4be8 44bc bd1d 3ab9
6e-45 6e-45 0.0 0.0 6e-45 6e-45 6e-45 6e-45
6e-45 0.0 0.0 0.0 6e-45 6e-45 0.0 6e-45
0.00024096656 0.0022237152 0.0002317893 3.9799643e-06 5.933808e-05 0.0017527973 0.0006898448 0.0026815035
-0.0011869802 0.00019229186 0.009743941 0.0056048427 0.00274069 0.0007605894 9.232695e-06 0.003427425
0.008797175 -0.004646926 -0.00610837 -0.001876816 -0.0005820418 0.0010863228 0.0013796069 -0.00034891756
0.0009218485 -0.0016758075 -0.008102399 -0.0049383463 -0.0029905809 -0.0014090932 -0.00045235115 -8.8630804e-05
6e-45 6e-45 6e-45 6e-45 6e-45 6e-45 6e-45 6e-45
6e-45 6e-45 6e-45 6e-45 6e-45 6e-45 6e-45 6e-45
0.00089148874 -0.000582654 -0.011248438 -0.018339645 -0.0015618989 0.00012484186 0.0008964958 0.0019811988
0.0010286588 1.676905e-05 -0.000891599 -0.0010477324 0.00022238473 -9.081083e-05 -0.012018274 -0.0001774942

exp_avg_sq f4 [5, 16]
00000000: cf48 3924 8746 1921 0000 0000 0000 0000
00000010: 96d1 4f21 03a9 9721 0e60 0324 c1ea 8b24
00000020: c953 f423 0000 0000 0000 0000 0000 0000
00000030: c182 541f f530 1b21 0000 0000 83a5 ba21
00000040: acbc d63a 2743 1039 9685 f136 377a 3031
00000050: 70c7 9638 23c8 4539 9d66 1c39 3618 053a
00000060: e5c4 6338 360f 3b38 caf6 243b 4475 273a
00000070: 8c64 7a39 962f cb37 4d8c d12f 34d3 2939
00000080: 1a09 033b 067e 7e3a ce45 773b 966b b338
00000090: 0943 aa3a 4277 5c39 8ac8 fe38 3b37 7539
000000a0: c5db f137 fe9f 0437 103a 1d3b 6060 6039
000000b0: de01 d838 fc8a b536 67ae fa37 d40d f939
000000c0: 8d35 ce25 9efd 5d28 88e8 d129 8faf 052a
000000d0: b039 b429 f8c8 d329 8cd7 8c28 b9b9 a727
000000e0: bee7 7028 a6b4 b227 8c29 a227 6ccd ee27
000000f0: 8fa7 8c27 76c7 fd27 e123 b529 9e50 4929
00000100: b0d8 2d39 5c74 713a 1a06 6c3c 3c88 a93c
00000110: 38ff 943b 4e1d 3037 41bf 8838 7249 7c39
00000120: 93cf 0937 4694 1d37 3aff fc3a 85a8 6239
00000130: 3f4c f438 e40c ae36 8927 fe3b cac3 153b
4.0177152e-17 5.193176e-19 0.0 0.0 7.0411713e-19 1.0276895e-18 2.848746e-17 6.067933e-17
2.6490017e-17 0.0 0.0 0.0 4.5000903e-20 5.2580837e-19 0.0 1.2647661e-18
0.0016383133 0.00013757926 7.197911e-06 2.5680842e-09 7.1897055e-05 0.00018861941 0.00014915546 0.0005077155
5.430439e-05 4.459844e-05 0.0025171512 0.00063880184 0.00023879315 2.4221645e-05 3.8116568e-10 0.00016195775
0.0019994439 0.000970811 0.0037730816 8.5554246e-05 0.0012989949 0.00021025262 0.00012149017 0.00023385596
2.8831777e-05 7.905064e-06 0.0023990907 0.00021398207 0.000103000304 5.4104003e-06 2.9883535e-05 0.00047503284
3.577159e-16 1.2322959e-14 9.321802e-14 1.1873682e-13 8.003613e-14 9.405145e-14 1.5636601e-14 4.6553172e-15
1.3372927e-14 4.9600784e-15 4.5009078e-15 6.628099e-15 3.9039473e-15 7.0437862e-15 8.044239e-14 4.470089e-14
0.00016579288 0.00092107593 0.014405752 0.020694844 0.004547026 1.04972405e-05 6.520609e-05 0.00024059953
8.214166e-06 9.392452e-06 0.0019302138 0.00021615818 0.000116490286 5.1871048e-06 0.007756178 0.0022852295

exp_avg f4 [5]
00000000: 0400 0000 9c7f 053b a903 2e3a 0400 0000
00000010: 8e09 eab8
6e-45 0.002037025 0.00066381186 6e-45 -0.00011159769

exp_avg_sq f4 [5]
00000000: f85e 5b23 8778 a239 b11e 6d3a e436 bf28
00000010: 763e d439
1.1892124e-17 0.00030988848 0.0009045406 2.1229065e-14 0.00040482328
