mase_output/jsc-tiny_classification_jsc_2024-01-26/software/training_ckpts/best-v10.ckpt (torch, 10650 bytes, 14 tensors)

model.seq_blocks.0.weight f4 [16]
00000000: cf2c a0c0 eded 4e40 4c91 46c0 b3d9 bcc0
00000010: 4585 2bc0 9c5d 1941 0b13 18bf ee2c a0c0
00000020: f9b4 5cc0 ee2c a0c0 052d a0c0 f62c a0c0
00000030: 4d10 0641 34dc 1641 fec9 1cc0 122d a0c0
-5.00547 3.2332718 -3.1026182 -5.9015746 -2.6800091 9.585354 -0.5940406 -5.0054846
-3.4485457 -5.0054846 -5.0054955 -5.0054884 8.37898 9.428761 -2.4498286 -5.0055017

model.seq_blocks.0.bias f4 [16]
00000000: ee2c c0c0 64c1 fbc0 1ad1 8cc0 e9c2 99c0
00000010: 5bf8 d6c0 e788 89c0 b470 aa40 d92b c0c0
00000020: 716d ddc0 402c c0c0 842c c0c0 6426 c0c0
00000030: aa0a c740 8c13 d840 0780 71c0 0c2d c0c0
-6.0054846 -7.8673573 -4.400525 -4.8050427 -6.717817 -4.2979617 5.3262577 -6.0053525
-6.9196095 -6.0054016 -6.005434 -6.0046864 6.220052 6.752386 -3.7734392 -6.005499

model.seq_blocks.0.running_mean f4 [16]
00000000: 9c2a 653c 0d62 a3bc de9e 32ba 8e3e 7b3a
00000010: 9d02 19bb be87 82ba 3b32 73ba a761 373b
00000020: 3b32 73ba 36d1 dabb 06e5 f0bb c77c f7b9
00000030: ad96 93bb c9c0 e23a c92c 80b9 9427 51ba
0.01398721 -0.019944215 -0.0006813834 0.00095842115 -0.0023347505 -0.0009958667 -0.0009277199 0.002798179
-0.0009277199 -0.006677772 -0.0073515205 -0.00047204478 -0.004504046 0.0017299886 -0.0002444743 -0.0007978615

model.seq_blocks.0.running_var f4 [16]
00000000: 4123 803f 08d7 833f 4107 813f 72a3 803f
00000010: 6268 803f d564 7d3f eb54 803f 8281 803f
00000020: eb54 803f 8b24 813f af52 803f 4c91 7f3f
00000030: a733 813f ae0c 813f 9d3a 813f e513 813f
1.0010759 1.0299997 1.0080339 1.004988 1.0031855 0.9898198 1.0025915 1.0039523
1.0025915 1.0089277 1.0025233 0.9983108 1.0093888 1.0081995 1.0096012 1.0084196

model.seq_blocks.2.weight f4 [5, 16]
00000000: 0054 f5ba 5e54 093e 16b3 52be 8066 3cbe
00000010: f432 c5bd 1c05 a3c0 5052 a5c0 cefa 4a3e
00000020: 70bf b5bc 4c7b 873d acbb 9abd 7048 49bd
00000030: b891 74be 7470 aac0 7d71 a8c0 00bb 173c
00000040: ba56 c340 3d60 bbc0 8199 c5c0 e8a8 c3c0
00000050: 3845 bdc0 7288 b9c0 90d2 c1c0 8930 bac0
00000060: 3077 c1c0 5a54 bfc0 9bee b8c0 07c1 b840
00000070: 5b36 c5c0 7033 c2c0 664b c3c0 9d43 b9c0
00000080: 83fd ba40 57cd 8f40 a3c3 c5c0 e948 f3c0
00000090: 6ed8 c4c0 914c b9c0 4fbb 11c1 704c bcc0
000000a0: fac0 bfc0 9f46 c4c0 2f87 c140 6aa1 c7c0
000000b0: 8cf4 c5c0 b54c c4c0 aa0d c0c0 3b7c bbc0
000000c0: 8ab8 c3c0 f776 c0c0 04c3 b7c0 791d e5c0
000000d0: c7c9 b6c0 a1a5 c0c0 d613 81c0 e4df c4c0
000000e0: b8b3 7bc0 dc60 c6c0 79b8 c5c0 034f c4c0
000000f0: 2dda ecc0 01c5 00c1 c3f7 cbc0 5dc2 bdc0
00000100: cbc8 bbc0 d2f4 9240 5cea 30c0 c900 a6bf
00000110: 9f34 5e40 525b 2d3f bc4b e7c0 921b c3c0
00000120: 95b8 05c1 368c b9c0 e836 b9c0 051e b9c0
00000130: 6387 01c1 d1c0 06c1 bf71 45c0 d82b bb40
-0.001871705 0.1341109 -0.20576128 -0.18398476 -0.09628859 -5.0943737 -5.166298 0.19822237
-0.022186011 0.06615314 -0.07555327 -0.049141347 -0.23883712 -5.326227 -5.2638535 0.009260893
6.1043367 -5.855498 -6.1749883 -6.1143684 -5.9146996 -5.797906 -6.0569534 -5.8184247
-6.0457993 -5.979047 -5.7791266 5.773563 -6.162885 -6.068779 -6.102954 -5.7895036
5.8434463 4.493816 -6.1801314 -7.60265 -6.1514196 -5.7905965 -9.10823 -5.8843307
-5.9923067 -6.1336207 6.047752 -6.238454 -6.186102 -6.1343637 -6.001668 -5.858915
-6.1162767 -6.014522 -5.7425556 -7.1598477 -5.712131 -6.0202184 -4.0336714 -6.1523304
-3.9328442 -6.1993237 -6.1787686 -6.134645 -7.401633 -8.048097 -6.3739944 -5.929976
-5.868261 4.5923853 -2.7643042 -1.296899 3.4719617 0.6771747 -7.227995 -6.0971155
-8.357564 -5.7983656 -5.7879524 -5.7849145 -8.095553 -8.422074 -3.0850675 5.849102

model.seq_blocks.2.bias f4 [5]
00000000: 689d acc0 7511 b9c0 3c87 bb40 be80 08c1
00000010: 9d95 e1c0
-5.3942146 -5.783381 5.860258 -8.531431 -7.0495133

exp_avg f4 [16]
00000000: 0400 0000 0400 0080 0400 0000 0400 0000
00000010: 0400 0000 0400 0080 0400 0000 0400 0000
00000020: 0400 0000 0400 0000 0400 0000 0400 0000
00000030: 0400 0080 0400 0080 0400 0000 0400 0000
6e-45 -6e-45 6e-45 6e-45 6e-45 -6e-45 6e-45 6e-45
6e-45 6e-45 6e-45 6e-45 -6e-45 -6e-45 6e-45 6e-45

exp_avg_sq f4 [16]
00000000: 3a3a 6830 03e2 ba33 384c f834 b999 9a33
00000010: c4b4 1334 1f68 a033 efe0 2734 a7eb 3431
00000020: 91cc a433 b69d 2331 3c0e 0b32 038d 8a31
00000030: 33dd f532 3c2a 7c32 a545 3835 5700 1633
8.4483853e-10 8.702411e-08 4.6249056e-07 7.199146e-08 1.3756204e-07 7.46952e-08 1.5634917e-07 2.63274e-09
7.6740555e-08 2.380927e-09 8.094101e-09 4.03236e-09 2.8622344e-08 1.46779335e-08 6.864669e-07 3.4924906e-08

exp_avg f4 [16]
00000000: 0400 0000 0400 0000 0400 0000 0400 0000
00000010: 0400 0000 0400 0000 0400 0080 0400 0000
00000020: 0400 0000 0400 0000 0400 0000 0400 0000
00000030: 0400 0080 0400 0080 0400 0000 0400 0000
6e-45 6e-45 6e-45 6e-45 6e-45 6e-45 -6e-45 6e-45
6e-45 6e-45 6e-45 6e-45 -6e-45 -6e-45 6e-45 6e-45

exp_avg_sq f4 [16]
00000000: 8e5d 3631 5080 b532 8a51 4036 a541 4636
00000010: e0e1 b033 0185 6136 d255 2d34 696f 5e2e
00000020: 249c 3a32 62e8 e72e c3ba 7e2f 6e51 f62b
00000030: af03 a134 adc9 bf34 3f0b 4736 55e6 9d32
2.6537665e-09 2.1129523e-08 2.8657691e-06 2.954251e-06 8.236725e-08 3.3605031e-06 1.6143102e-07 5.0575908e-11
1.0862127e-08 1.0545943e-10 2.3167517e-10 1.7501953e-12 2.9991267e-07 3.572326e-07 2.9659857e-06 1.8381948e-08

exp_avg f4 [5, 16]
00000000: 0000 0000 0000 0000 0000 0000 0000 0000
00000010: 0000 0000 0400 0000 0400 0000 0000 0000
00000020: 0000 0000 0000 0000 0000 0000 0000 0000
00000030: 0000 0000 0400 0000 0400 0000 0000 0000
00000040: 0400 0080 0400 0000 0400 0000 0400 0000
00000050: 0400 0000 0400 0000 0400 0000 0400 0000
00000060: 0400 0000 0400 0000 0400 0000 0400 0080
00000070: 0400 0000 0400 0000 0400 0000 0400 0000
00000080: 0400 0080 0400 0080 0400 0000 0400 0000
00000090: 0400 0000 0400 0000 0400 0000 0400 0000
000000a0: 0400 0000 0400 0000 0400 0080 0400 0000
000000b0: 0400 0000 0400 0000 0400 0000 0400 0000
000000c0: 0400 0000 0400 0000 0400 0000 0400 0000
000000d0: 0400 0000 0400 0000 0400 0000 0400 0000
000000e0: 0400 0000 0400 0000 0400 0000 0400 0000
000000f0: 0400 0000 0400 0000 0400 0000 0400 0000
00000100: 0400 0000 0400 0080 0400 0000 0400 0000
00000110: 0400 0080 0400 0000 0400 0000 0400 0000
00000120: 0400 0000 0400 0000 0400 0000 0400 0000
00000130: 0400 0000 0400 0000 0400 0000 0400 0080
0.0 0.0 0.0 0.0 0.0 6e-45 6e-45 0.0
0.0 0.0 0.0 0.0 0.0 6e-45 6e-45 0.0
-6e-45 6e-45 6e-45 6e-45 6e-45 6e-45 6e-45 6e-45
6e-45 6e-45 6e-45 -6e-45 6e-45 6e-45 6e-45 6e-45
-6e-45 -6e-45 6e-45 6e-45 6e-45 6e-45 6e-45 6e-45
6e-45 6e-45 -6e-45 6e-45 6e-45 6e-45 6e-45 6e-45
6e-45 6e-45 6e-45 6e-45 6e-45 6e-45 6e-45 6e-45
6e-45 6e-45 6e-45 6e-45 6e-45 6e-45 6e-45 6e-45
6e-45 -6e-45 6e-45 6e-45 -6e-45 6e-45 6e-45 6e-45
6e-45 6e-45 6e-45 6e-45 6e-45 6e-45 6e-45 -6e-45

exp_avg_sq f4 [5, 16]
00000000: 0000 0000 0000 0000 0000 0000 0000 0000
00000010: 0000 0000 b03f 9330 ccd3 152f 0000 0000
00000020: 0000 0000 0000 0000 0000 0000 0000 0000
00000030: 0000 0000 46d1 322c debc 842c 0000 0000
00000040: 2a2b 9a33 1e95 3934 6d90 1a34 1a6f e433
00000050: 8a5e 3334 0ee5 2934 9155 f133 414f 8533
00000060: 9155 f133 cabe aa32 bb4c 2432 ae25 f030
00000070: 5335 e832 21af 7631 dd18 3634 16f6 7d34
00000080: 0c6f c831 60bd 1b33 16f6 7d30 6d1b a531
00000090: 6412 2a31 28f2 1d32 1671 3330 32b7 9e32
000000a0: be48 fe2f ee51 c32f 7423 0330 e655 ba2c
000000b0: ae63 1930 e296 fe30 e2b5 3531 3999 0c32
000000c0: 1f42 ef2e ba03 f732 6db9 5634 af3d 9034
000000d0: 1554 3834 10d0 4e34 8767 3235 9bc2 122d
000000e0: 46d9 8d34 6e1c 3832 006e 3b32 abb1 9932
000000f0: 712e bc33 b965 b033 1797 4034 74a4 d033
00000100: 7b67 e033 b62a eb30 c6fb 2337 2e42 8436
00000110: ba39 6435 7df8 0a36 2e64 8c34 2635 8432
00000120: b7d5 a132 1a6f e433 c121 2b34 4e6a e233
00000130: 0173 0e35 4a09 9a34 c357 3f37 e053 b233
0.0 0.0 0.0 0.0 0.0 1.0713759e-09 1.3626716e-10 0.0
0.0 0.0 0.0 0.0 0.0 2.5411491e-12 3.772634e-12 0.0
7.179035e-08 1.7283716e-07 1.439491e-07 1.06372866e-07 1.6705067e-07 1.5822681e-07 1.12380015e-07 6.207711e-08
1.12380015e-07 1.9877366e-08 9.563503e-09 1.7473007e-09 2.7032604e-08 3.589726e-09 1.6959116e-07 2.3651987e-07
5.8333907e-09 3.6260985e-08 9.2390573e-10 4.80525e-09 2.474871e-09 9.193663e-09 6.5280525e-10 1.8476928e-08
4.6254017e-10 3.5528508e-10 4.7707904e-10 5.2959746e-12 5.580273e-10 1.8523816e-09 2.6442355e-09 8.183911e-09
1.0880207e-10 2.875628e-08 1.999776e-07 2.686697e-07 1.7166924e-07 1.9260938e-07 6.646082e-07 8.34235e-12
2.6421384e-07 1.0716674e-08 1.0909844e-08 1.7892338e-08 8.76288e-08 8.214142e-08 1.793636e-07 9.7156686e-08
1.0449636e-07 1.711064e-09 9.774178e-06 3.941611e-06 8.502062e-07 2.0708242e-06 2.6149922e-07 1.5390992e-08
1.8840053e-08 1.06372866e-07 1.5937896e-07 1.0543282e-07 5.3066475e-07 2.8691494e-07 1.1404921e-05 8.304028e-08

exp_avg f4 [5]
00000000: 0400 0000 0400 0000 0400 0080 0400 0000
00000010: 0400 0000
6e-45 6e-45 -6e-45 6e-45 6e-45

exp_avg_sq f4 [5]
00000000: 9a01 092e 09d3 7e34 b8c6 2234 1cab 9633
00000010: 15b9 4c36
3.1151616e-11 2.3732368e-07 1.5159719e-07 7.016044e-08 3.05061e-06
