mase_output/jsc-tiny_classification_jsc_2024-01-26/software/training_ckpts/best-v1.ckpt (torch, 10778 bytes, 14 tensors)

model.seq_blocks.0.weight f4 [16]
0	0x3fa07047	1.2534264
1	0x3f8e2bb8	1.1107092
2	0x3fa0f869	1.2575809
3	0x3fa1afdd	1.2631794
4	0x3f9c2814	1.2199731
5	0x3fa04f72	1.2524245
6	0x3f8b11cb	1.0864805
7	0x3f946eda	1.1596329
8	0x3f8038f7	1.0017384
9	0x3f966eb1	1.175253
10	0x3f8cc4a1	1.0997506
11	0x3f745f8a	0.9545828
12	0x3f48e2ec	0.78471255
13	0x3f68dc02	0.90960705
14	0x3f9b368e	1.2126024
15	0x3f98cd0c	1.1937575

model.seq_blocks.0.bias f4 [16]
0	0x3e14bd80	0.14525414
1	0x3dc45b13	0.095876835
2	0x3e7af24f	0.24506496
3	0x3e8520fb	0.26001725
4	0x3ded9b04	0.116018325
5	0x3e54cf09	0.20782103
6	0x3e4fe7ba	0.2030324
7	0x3e80824f	0.25099418
8	0x3dd2020c	0.10254297
9	0x3e43314a	0.19061771
10	0x3e50b838	0.20382774
11	0xbdc453a2	-0.09586264
12	0xbe73a526	-0.23793468
13	0xbc4be9b4	-0.012445856
14	0x3eaa896b	0.33307967
15	0x3e057874	0.1303423

model.seq_blocks.0.running_mean f4 [16]
0	0xbc3c9e6b	-0.011512379
1	0x3c73d7a6	0.014882958
2	0xba8b6ef2	-0.0010637923
3	0x38de3968	0.00010596478
4	0xb9863cb3	-0.00025603696
5	0x3b1922d9	0.0023366718
6	0x3b10522b	0.0022021632
7	0x3bb0f23a	0.0053999694
8	0x3b10522b	0.0022021632
9	0x3c14b3f8	0.009076111
10	0x3bf6a2fe	0.0075267544
11	0x3be7ab3f	0.0070699747
12	0x3c0b959d	0.008519557
13	0x3bc4b6d6	0.006003241
14	0x39054904	0.00012711069
15	0x3b8f33a0	0.004370168

model.seq_blocks.0.running_var f4 [16]
0	0x3f7b3938	0.98134184
1	0x3f76d6be	0.9642142
2	0x3f8109dd	1.0081135
3	0x3f807044	1.0034261
4	0x3f7edbe2	0.99554265
5	0x3f80272b	1.0011953
6	0x3f799398	0.97490835
7	0x3f8198cc	1.0124755
8	0x3f799398	0.97490835
9	0x3f7b86a7	0.9825234
10	0x3f7b0a97	0.98063034
11	0x3f7d3835	0.9891389
12	0x3f7aa83e	0.9791297
13	0x3f7dc0fe	0.9912261
14	0x3f81a6b0	1.0128994
15	0x3f7fa4c1	0.9986077

model.seq_blocks.2.weight f4 [5, 16]
0	0xbe86d77b	-0.26336274
1	0x3e87ce81	0.26524737
2	0xbdf47358	-0.119360626
3	0xba93ef36	-0.00112865
4	0xbca40e1b	-0.020026257
5	0x3e09a610	0.13442254
6	0x3d9d7cd1	0.076898225
7	0x3eb0d8ee	0.34540504
8	0x3d5665be	0.052343123
9	0x3e9f2e3f	0.3108997
10	0x3e3c12d3	0.18366556
11	0x3e33b8cf	0.17550968
12	0x3bd184c1	0.0063939993
13	0x3cc7722a	0.02434643
14	0x3dcc0e6e	0.0996369
15	0x3eb051e0	0.34437466
16	0x3ece835a	0.40334588
17	0xbdf67f9f	-0.120360605
18	0xbef5c287	-0.47999975
19	0xbe94981a	-0.29022294
20	0xbe171d4a	-0.14757267
21	0x3daf6b85	0.085654296
22	0x3c9875bc	0.018610828
23	0x3e951a34	0.29121554
24	0x3ce230ba	0.027611125
25	0x3dde023e	0.108402714
26	0x3e9dea2b	0.30842718
27	0xbd290619	-0.04126558
28	0xbdd92b38	-0.106039464
29	0x3dd3b1cd	0.10336647
30	0xbed88136	-0.4228608
31	0xbdb5f393	-0.08884349
32	0x3d52f6b1	0.051504795
33	0x3e373453	0.17891054
34	0xbe10299f	-0.14078377
35	0xbf11dc28	-0.56976557
36	0xbe30ebd7	-0.17277466
37	0x3d0ab657	0.0338653
38	0x3e1955cd	0.14974137
39	0x3d24c49f	0.040226575
40	0x3d35f09b	0.044418912
41	0xbde905c6	-0.11378054
42	0x3e0efd36	0.1396378
43	0xbe52eddd	-0.2059855
44	0xbe4fcede	-0.20293757
45	0xbe1f5d85	-0.15563019
46	0x3e621cb1	0.22081257
47	0xbe272e6d	-0.16326304
48	0xbdaa1d79	-0.08306403
49	0xbd4788cb	-0.04871444
50	0x3d502973	0.05082078
51	0x3e1e6c9a	0.15471116
52	0x3d8c36b8	0.06846374
53	0xbcacdb08	-0.021100536
54	0x3e4507e6	0.19241294
55	0xbe1bc5df	-0.152122
56	0x3d94e74a	0.072706774
57	0xbe70841c	-0.23487896
58	0xbe690ca6	-0.22758731
59	0xbe371333	-0.17878418
60	0x3dbc0c30	0.09182012
61	0x3d7eedf2	0.06223864
62	0xbe3e0168	-0.18555224
63	0xbc5da30f	-0.013527646
64	0xbe0ce0d9	-0.13757648
65	0x3c8fa66a	0.017535407
66	0x3e798abf	0.24369334
67	0x3e96da46	0.29463404
68	0x3eb90401	0.36135867
69	0x3ef151b4	0.47132647
70	0xbe8885b1	-0.26664498
71	0xbcb42d72	-0.021994326
72	0x3cfd3ea5	0.03091366
73	0x3db99ec1	0.09063483
74	0x3cde6949	0.027149813
75	0x3e1e34d2	0.15449837
76	0xbd9b77d2	-0.07591213
77	0xbe2d7705	-0.16939934
78	0x3e219f21	0.15783359
79	0xbe05a432	-0.13050917

model.seq_blocks.2.bias f4 [5]
0	0xbe1c655e	-0.15273044
1	0x3e4aa9dd	0.1979136
2	0x3efda761	0.49541762
3	0xbe8b57a6	-0.27215308
4	0xbe00be3c	-0.12572569

exp_avg f4 [16]
0	0xbc2e2dd9	-0.010631048
1	0xbab8dca4	-0.0014103842
2	0xba615cd3	-0.0008596901
3	0xbb82bc15	-0.0039897063
4	0xba82ee84	-0.0009989296
5	0xbb387851	-0.0028147886
6	0xbb0c99bd	-0.002145394
7	0x3b533297	0.0032226199
8	0xb984e45d	-0.00025347146
9	0xbb1a62a3	-0.0023557327
10	0xbb576ec1	-0.003287241
11	0xb9e3d603	-0.00043456265
12	0x3a3ed058	0.00072789704
13	0x3ad76de8	0.0016435953
14	0xba0f35e8	-0.000546305
15	0xbc9a9ab0	-0.018872589

exp_avg_sq f4 [16]
0	0x3961189a	0.00021466837
1	0x37579bd1	1.28512775e-05
2	0x3879d03e	5.9560167e-05
3	0x38994129	7.3077455e-05
4	0x3895cf10	7.143442e-05
5	0x38a1d028	7.7158504e-05
6	0x3798de6f	1.822339e-05
7	0x383e014f	4.530075e-05
8	0x35519d49	7.808745e-07
9	0x381943c0	3.654114e-05
10	0x37b2cb77	2.1314e-05
11	0x37c8f68a	2.3956662e-05
12	0x36dd1397	6.588594e-06
13	0x373e9826	1.1360307e-05
14	0x36c51cd6	5.8744145e-06
15	0x39d44028	0.0004048359

exp_avg f4 [16]
0	0xbbb9ee8d	-0.0056741894
1	0xbbcbbd05	-0.0062176012
2	0xbbb15ebb	-0.005412904
3	0xbba4dad2	-0.005030968
4	0x3a6ddda3	0.0009073859
5	0xba7aa146	-0.0009560775
6	0xbb52a3b7	-0.0032141039
7	0xbb0c8712	-0.0021442813
8	0xba1c7fd0	-0.0005969973
9	0xbb14fc0e	-0.0022733244
10	0xbbac32f1	-0.005255096
11	0xb924c63c	-0.00015714107
12	0x3a84238b	0.0010081393
13	0xb8488e2f	-4.7816135e-05
14	0xbca16bd8	-0.019704744
15	0xbc0803b8	-0.008301668

exp_avg_sq f4 [16]
0	0x392126f8	0.00015368673
1	0x383797f7	4.377213e-05
2	0x39096b52	0.00013105318
3	0x3a22b32a	0.0006206507
4	0x3873aa43	5.8094283e-05
5	0x383e20f1	4.533021e-05
6	0x37d0c7b5	2.4888528e-05
7	0x38451027	4.6983503e-05
8	0x354f4945	7.722013e-07
9	0x38286cc6	4.0155624e-05
10	0x3815cc5d	3.5714696e-05
11	0x37a3145e	1.9440598e-05
12	0x36ff6dc7	7.612372e-06
13	0x37577aee	1.284362e-05
14	0x39b78279	0.0003500169
15	0x39093b53	0.00013087438

exp_avg f4 [5, 16]
0	0x3bbe5df8	0.005809542
1	0x3b390d61	0.0028236734
2	0xbb621b30	-0.0034501068
3	0xbca53b01	-0.020169737
4	0x3a5e9ea3	0.00084922666
5	0x392580c4	0.00015783595
6	0x3b2a2fde	0.0025968472
7	0x3abd5692	0.0014445356
8	0x3b2ca54e	0.0026343646
9	0xbc57a645	-0.0131622
10	0xbc7fa55e	-0.015603391
11	0xbbc47bea	-0.005996217
12	0xbbb9dcef	-0.0056720893
13	0xbb0bb19b	-0.0021315578
14	0xbc94f27b	-0.01818203
15	0xbd6594d2	-0.05605013
16	0xbceef01a	-0.029167224
17	0x3ad98c5c	0.0016597616
18	0x3bb9dee6	0.0056723235
19	0x3acc3ca6	0.001558204
20	0x3b5c6a29	0.0033632612
21	0x39b91e93	0.0003530873
22	0x3bf07e3e	0.007339268
23	0x3c0e33ed	0.008679372
24	0x3bd2a63a	0.006428507
25	0x3a6c595f	0.0009016003
26	0xbb542bc5	-0.0032374721
27	0xbb86087e	-0.004090368
28	0x3b09b11a	0.0021010102
29	0x3a8678b0	0.0010259356
30	0x3c672f9a	0.01411047
31	0x3bf9fa5d	0.0076287226
32	0xbc1149cc	-0.008867692
33	0xbc8334a4	-0.016016312
34	0xbb41d54f	-0.0029576605
35	0x3c1b1951	0.009466485
36	0xbb300200	-0.002685666
37	0xb81f4198	-3.7969643e-05
38	0xbc107f97	-0.008819482
39	0xbbf22d28	-0.007390637
40	0xbbec10a7	-0.0072041336
41	0xbbdd0e3a	-0.0067460807
42	0xbbce9523	-0.0063043996
43	0xbb8fb3bd	-0.00438544
44	0xbb5704c4	-0.0032809237
45	0xbbba4e8b	-0.0056856326
46	0xbbfeb3d4	-0.007772902
47	0x3c3f9f18	0.011695646
48	0xbb0d4a84	-0.0021559307
49	0xb9eafa74	-0.0004481856
50	0x3936f011	0.00017446304
51	0x38ee991a	0.00011377242
52	0xba5f2cce	-0.00085134513
53	0x39711e24	0.0002299478
54	0xbbc68479	-0.0060582724
55	0xbb306413	-0.0026915118
56	0xbbb08677	-0.005387123
57	0xb9247bb3	-0.0001568634
58	0x378c381a	1.6715425e-05
59	0x3675dfc9	3.6638105e-06
60	0xb964cde3	-0.00021820473
61	0xb99002c9	-0.00027467895
62	0xba06be2e	-0.00051400333
63	0xb86fb7cf	-5.7153225e-05
64	0x3b8991de	0.004198297
65	0x3bf6d88d	0.007533139
66	0xbb0c2faa	-0.0021390715
67	0xbaf190e6	-0.0018430024
68	0xbb362ef9	-0.0027798994
69	0xbc02f709	-0.007993468
70	0x3b4ce26c	0.0031262888
71	0xbb300c10	-0.0026862659
72	0x3b2b8ef9	0.0026177748
73	0xb91ea72b	-0.00015130329
74	0x3b184065	0.0023231742
75	0xbb3198a6	-0.0027099042
76	0x3a3ed6a1	0.0007279907
77	0xbb5db6bd	-0.0033830844
78	0x3c618f9f	0.013767152
79	0x3c57fe99	0.013183259

exp_avg_sq f4 [5, 16]
0	0x391f922f	0.00015217879
1	0x39a53376	0.00031509594
2	0x3a19e211	0.00058701733
3	0x3a5c092c	0.00083937007
4	0x3a1d5ba5	0.0006002731
5	0x3a31efbe	0.00067877385
6	0x3a150fc4	0.0005686248
7	0x3a588285	0.0008259195
8	0x39e16f80	0.00042998418
9	0x3a4bb736	0.0007771136
10	0x3a412f06	0.0007369373
11	0x39b53bf9	0.00034567693
12	0x390d31ca	0.00013465356
13	0x39ac6625	0.000328825
14	0x3a52486c	0.0008021656
15	0x3b6505dc	0.003494612
16	0x3afe79bb	0.0019414941
17	0x389108a4	6.915748e-05
18	0x38200737	3.8153692e-05
19	0x36976a50	4.512527e-06
20	0x3827d61b	4.0015304e-05
21	0x37d6e1ff	2.5616026e-05
22	0x3a0d3b86	0.0005387593
23	0x3a32298e	0.0006796353
24	0x39d7df0d	0.0004117418
25	0x3a06e66a	0.00051460287
26	0x3a0032c2	0.0004890376
27	0x3996a2ac	0.0002873143
28	0x38b3709a	8.556359e-05
29	0x39897090	0.00026214542
30	0x394a5b9e	0.00019298351
31	0x3972bce5	0.00023149287
32	0x3a2e7340	0.0006654747
33	0x39b1fb95	0.00033947514
34	0x38be4475	9.072657e-05
35	0x39001904	0.0001221635
36	0x385c5082	5.2527066e-05
37	0x3793e417	1.7629978e-05
38	0x39c89385	0.00038256883
39	0x39abd663	0.00032775392
40	0x39998df2	0.00029288192
41	0x3965159d	0.00021847193
42	0x395ae04c	0.00020873657
43	0x38c3f184	9.3433104e-05
44	0x380bd872	3.3341763e-05
45	0x38d4decb	0.00010150446
46	0x392ee181	0.0001667794
47	0x394c2045	0.00019466977
48	0x3802391d	3.1047606e-05
49	0x36a191e4	4.815158e-06
50	0x357adcdf	9.345367e-07
51	0x35ddfaa9	1.6538735e-06
52	0x37eeb071	2.8453973e-05
53	0x36ccd81c	6.104832e-06
54	0x396a777c	0.0002236049
55	0x3831d52c	4.239862e-05
56	0x3939331a	0.00017662012
57	0x34c66d3c	3.6959852e-07
58	0x328e8942	1.6593393e-08
59	0x2d6ea0d0	1.3564441e-11
60	0x3529960d	6.317576e-07
61	0x3558c2ff	8.0750027e-07
62	0x374ded34	1.227418e-05
63	0x36040347	1.967144e-06
64	0x3876bff8	5.8829755e-05
65	0x398d1c9a	0.00026914926
66	0x3a96e9fe	0.0011513827
67	0x3aa516b2	0.0012595265
68	0x3a58043b	0.00082403765
69	0x3a823bf9	0.0009936086
70	0x3929d1bb	0.00016195227
71	0x3949c7d7	0.000192433
72	0x38f87939	0.00011848141
73	0x39332db6	0.00017087799
74	0x392cb98b	0.00016472318
75	0x38958adc	7.130738e-05
76	0x37b6ba28	2.1782776e-05
77	0x38af6f58	8.36539e-05
78	0x3aa29350	0.0012403522
79	0x3a49c62d	0.0007697072

exp_avg f4 [5]
0	0x3b00b3cf	0.0019638424
1	0xbaa48c07	-0.0012553938
2	0xbd0a1688	-0.033712894
3	0xbb166a50	-0.002295155
4	0x3c3ba5a1	0.011453063

exp_avg_sq f4 [5]
0	0x3a1b20cb	0.00059176673
1	0x3a12816e	0.00055887445
2	0x3a9c118a	0.0011907083
3	0x3818f21f	3.6465117e-05
4	0x3a030e09	0.0004999345
