mase_output/jsc-tiny_classification_jsc_2024-01-26/software/training_ckpts/best-v6.ckpt (torch, 10778 bytes, 14 tensors)

model.seq_blocks.0.weight f4 [16]
0	0x40020ee7	2.0321596
1	0x3ffbe8f6	1.9680469
2	0x40351d76	2.8299232
3	0x40af132c	5.4710903
4	0x3fb00d5a	1.3754075
5	0x3fb54fe6	1.4165008
6	0x3f56c319	0.83891445
7	0x3f4c5569	0.79817826
8	0x3f998bba	1.1995766
9	0x3f248317	0.6426253
10	0x3f9de9bf	1.2336959
11	0x3fa5b630	1.2946224
12	0x3fa49eb3	1.2860931
13	0x3f626816	0.8844007
14	0x403768db	2.8657749
15	0x3fdd0886	1.7268226

model.seq_blocks.0.bias f4 [16]
0	0x3f442401	0.7661744
1	0x3fb5e813	1.4211448
2	0x3fdfc4ec	1.7481971
3	0x3f80e3f9	1.0069572
4	0x3fb60e15	1.4223047
5	0x3f59c623	0.8506796
6	0x3f4ca0dd	0.7993296
7	0x3f6df2b8	0.92948484
8	0xbe7b6222	-0.24549153
9	0x3f1d4575	0.6143411
10	0x3fd7098a	1.6799786
11	0x3b9515b2	0.0045497054
12	0xbef8fe14	-0.48631346
13	0x3f342fac	0.7038524
14	0x3f67bfdc	0.9052713
15	0x3fcae232	1.5850279

model.seq_blocks.0.running_mean f4 [16]
0	0x3b923454	0.0044618044
1	0x3be6a931	0.007039212
2	0xbc5f54e7	-0.013631082
3	0xbc6ea793	-0.01456632
4	0xbcd62a61	-0.026143255
5	0xbcb4ece3	-0.022085613
6	0xbc9cb106	-0.01912738
7	0xbc76a330	-0.015053555
8	0xbc9cb106	-0.01912738
9	0xbc2921cc	-0.010322999
10	0xbbdfa295	-0.006824801
11	0xbb57285c	-0.0032830453
12	0xbc5f3d59	-0.013625466
13	0xbc39afc5	-0.011333411
14	0xbc3714b9	-0.011174374
15	0xbc82e4a0	-0.015978158

model.seq_blocks.0.running_var f4 [16]
0	0x3f75d098	0.96021414
1	0x3f76748f	0.96271604
2	0x3f7ba460	0.9829769
3	0x3f7c0fba	0.98461497
4	0x3f77d6f0	0.96812344
5	0x3f7ce6d0	0.9878969
6	0x3f781862	0.96912205
7	0x3f7d55ea	0.9895922
8	0x3f781862	0.96912205
9	0x3f80f1b8	1.0073767
10	0x3f80a24e	1.0049531
11	0x3f813c35	1.0096499
12	0x3f7f2fbd	0.9968222
13	0x3f807684	1.0036168
14	0x3f7c2733	0.98497313
15	0x3f73e128	0.95265436

model.seq_blocks.2.weight f4 [5, 16]
0	0x3ec2095c	0.37897766
1	0x3f40c707	0.7530369
2	0xbfa2670e	-1.26877
3	0x3e28fb76	0.16502175
4	0xbf59e14c	-0.851094
5	0x3eb21415	0.34780946
6	0xbe3df429	-0.18550171
7	0x3e9fe54a	0.3122962
8	0xbd3d7b09	-0.046259914
9	0x3e720518	0.23634756
10	0x3e85fdc6	0.26170176
11	0x3d1eddbb	0.038785677
12	0x3d8db2e1	0.06918884
13	0xbeb1034c	-0.34572828
14	0x3f739eb6	0.9516405
15	0x3f170ca5	0.5900367
16	0x3f627c61	0.8847104
17	0x3f57ed47	0.8434643
18	0xbe0ea3de	-0.13929698
19	0xbfdc57f3	-1.721434
20	0x3ee42ed3	0.44566974
21	0x3e7b82ae	0.24561569
22	0xbe138383	-0.14405636
23	0xbe004154	-0.1252492
24	0x3d04f87f	0.032463547
25	0x3d8b341b	0.06797048
26	0x3f4d7687	0.80258983
27	0xbea42eb1	-0.32066873
28	0xbe5a9df4	-0.21349317
29	0x3d1476c0	0.03624606
30	0xbfc75f14	-1.557589
31	0xbf7927ba	-0.9732624
32	0x3eb234fe	0.34806055
33	0x3f192986	0.59828985
34	0x3fa0553f	1.2526015
35	0xc0bde15b	-5.933759
36	0x3f1bb0ff	0.6081695
37	0xbebcc6ac	-0.36870325
38	0x3e06f9df	0.13181256
39	0xbee226b3	-0.4417015
40	0xbd244fbe	-0.04011511
41	0xbd5c70a8	-0.053818375
42	0x3e8ece78	0.27891898
43	0xbd77b2d4	-0.06047328
44	0xbd14a97b	-0.03629444
45	0x3e11c61d	0.1423573
46	0x3f0250b9	0.50904423
47	0xbfd97e3f	-1.6991652
48	0x3ea86500	0.32889557
49	0x3ef904e9	0.4863656
50	0x3f1f6ba7	0.6227364
51	0xbfa1c5e6	-1.2638519
52	0x3e3b3077	0.18280207
53	0xbf3743ea	-0.71588004
54	0x3d789246	0.060686372
55	0xbce70bba	-0.028203834
56	0xbd9c2e02	-0.07625963
57	0xbddbed36	-0.10738604
58	0x3ebf0532	0.3730865
59	0xbe1cabe3	-0.15299945
60	0xbeb2b839	-0.34906176
61	0x3ea537e2	0.32269198
62	0x3f98fa01	1.1951295
63	0xbf955543	-1.1666645
64	0xbb2d78b7	-0.0026469657
65	0x3ea4c2d2	0.32179886
66	0x3f445739	0.7669559
67	0xbdfbc262	-0.12292935
68	0x3e8c7618	0.27433848
69	0x3f0faa9e	0.56119716
70	0xbf1588cc	-0.5841186
71	0x3ee618dc	0.4494084
72	0xbf09d3e2	-0.5383893
73	0xbd931181	-0.07181073
74	0xbf41e456	-0.7573904
75	0x3f41db8c	0.75725627
76	0xbf97dd5b	-1.1864427
77	0x3dc7a7ec	0.097488254
78	0xbed6f60a	-0.41984588
79	0xbe13f1f1	-0.14447762

model.seq_blocks.2.bias f4 [5]
0	0xbe93df0d	-0.28881112
1	0xbd994ba8	-0.074851334
2	0x3faca212	1.348696
3	0x3f1a54ae	0.6028546
4	0x3f003867	0.50086063

exp_avg f4 [16]
0	0xbb1363ab	-0.0022489827
1	0x3b03a7c5	0.0020089012
2	0xbb0daf0d	-0.002161923
3	0xbbeb2aad	-0.007176718
4	0x3ad6ee9c	0.0016398015
5	0x3b47e4c4	0.0030501345
6	0xbb0f289d	-0.0021844276
7	0x3a0057f3	0.0004895918
8	0xbad2bb6b	-0.0016077583
9	0x3acc1900	0.0015571415
10	0x3b0a1715	0.0021070887
11	0x392d187c	0.00016507687
12	0xbadd1e0c	-0.0016869917
13	0xbb3d5eb1	-0.0028895552
14	0x3a271558	0.0006373725
15	0xba18e6b8	-0.00058327196

exp_avg_sq f4 [16]
0	0x3900ff45	0.00012302127
1	0x38263e09	3.963526e-05
2	0x3a7b128e	0.0009577655
3	0x39b5633a	0.0003459694
4	0x39f6a197	0.0004704117
5	0x38f811ea	0.00011828898
6	0x383a7ba0	4.446099e-05
7	0x39393cf5	0.00017665683
8	0x37af4393	2.0893092e-05
9	0x37be5fca	2.269437e-05
10	0x396e2111	0.00022709767
11	0x38925835	6.978252e-05
12	0x38fb791b	0.0001199117
13	0x389565b8	7.12382e-05
14	0x3a0099c8	0.00049057277
15	0x3a122a00	0.00055757165

exp_avg f4 [16]
0	0xba2b9a1a	-0.0006546095
1	0x3b8fcc0d	0.0043883384
2	0xbbe49fe7	-0.0069770697
3	0x3d43e0cd	0.04782181
4	0xbbf4806d	-0.0074615986
5	0x3bd70f31	0.0065630903
6	0xbbd0cf60	-0.0063723773
7	0x3be8824b	0.0070956103
8	0xbacd84c9	-0.0015679832
9	0x3aa5a039	0.0012636251
10	0xbbae771c	-0.0053242575
11	0x3a84e12f	0.0010137911
12	0xba994fbc	-0.0011696736
13	0xbb020400	-0.001983881
14	0xba2e2c5e	-0.00066441845
15	0x3c228c3b	0.009921129

exp_avg_sq f4 [16]
0	0x390362d6	0.00012529953
1	0x3915e0e7	0.0001429353
2	0x3aa0a6ca	0.0012256738
3	0x3ce890a1	0.028389277
4	0x3a3ed88c	0.0007280193
5	0x39afa311	0.00033500095
6	0x38ed724b	0.000113223294
7	0x39c5b49c	0.00037709333
8	0x37a6d783	1.9889098e-05
9	0x38195e6b	3.6565976e-05
10	0x39fd74f7	0.00048343066
11	0x389ec63e	7.5709526e-05
12	0x390e58d2	0.00013575263
13	0x38d814e5	0.000103035745
14	0x3a48feb5	0.0007667349
15	0x3aea8980	0.0017893761

exp_avg f4 [5, 16]
0	0x3a73c586	0.00092991476
1	0x3c83c221	0.016083779
2	0x3c1b07ff	0.009462356
3	0x3c482c8e	0.012217654
4	0x3c13a5b6	0.009011677
5	0x3b86f5a1	0.0041186367
6	0x3c00bcb0	0.007857487
7	0x3bf8ec0c	0.0075964984
8	0x3b65d388	0.003506871
9	0x3bacf349	0.0052780253
10	0x3c5d1056	0.013492664
11	0x3baf905c	0.005357785
12	0x3b8269fb	0.003979919
13	0x3be3c2d5	0.006950716
14	0x3c3c6105	0.011497741
15	0x3c37e84d	0.011224818
16	0xbc05f442	-0.008175911
17	0x3baee5fa	0.005337474
18	0x3a678744	0.0008832107
19	0x3744a145	1.1720059e-05
20	0x3b4421d9	0.0029927401
21	0x3abc22e6	0.0014353662
22	0x3b88b44a	0.0041718828
23	0x3bc69beb	0.0060610673
24	0x3b108f3c	0.002205803
25	0x3b76e65c	0.0037673926
26	0x3bf92abf	0.0076039727
27	0x3bb842a9	0.005623181
28	0x3b4254f0	0.0029652677
29	0x3ba88206	0.005142453
30	0xba6e1148	-0.00090815546
31	0x3b90a97b	0.004414735
32	0x3bc0287b	0.0058642006
33	0xbca283a7	-0.019838167
34	0xbca02d0a	-0.019552726
35	0xba9be3d9	-0.0011893465
36	0xbc30d4bc	-0.010792907
37	0xbb685c50	-0.0035455413
38	0xbb2ccd1b	-0.002636737
39	0xbb82ed36	-0.003995563
40	0x3817f1da	3.6226447e-05
41	0xbba4c258	-0.0050280504
42	0xbc515fe3	-0.012779209
43	0xbb9602b0	-0.004577957
44	0xbb35cfa0	-0.0027742162
45	0xbbb74d40	-0.0055939257
46	0xbc0af1b1	-0.008480475
47	0xbbb64b9d	-0.005563213
48	0xba543e20	-0.00080964155
49	0xba7b8d3c	-0.00095959357
50	0x3aae2993	0.0013287537
51	0xbae4d7fe	-0.001745939
52	0xbb10c435	-0.0022089605
53	0xbaa4e60a	-0.0012580764
54	0xbbac6a81	-0.0052617197
55	0xbbb2d689	-0.0054577035
56	0xbb84f265	-0.004057216
57	0xbb53bc7f	-0.0032308397
58	0xbbf7cc6f	-0.007562212
59	0xbb83ee75	-0.004026229
60	0xbb12e082	-0.002241165
61	0xbb951456	-0.0045495434
62	0xba823bf8	-0.0009936085
63	0xbba556e0	-0.0050457567
64	0x3ae74a7f	0.0017646103
65	0x3c9506f9	0.018191801
66	0x3cba1a73	0.02271769
67	0x3c9a3be5	0.018827388
68	0x3c927c75	0.017881611
69	0x3c2c424b	0.010513852
70	0x3bece3bd	0.007229297
71	0x3bfa6df7	0.0076425034
72	0x3b5882a6	0.0033036857
73	0x3ba3e7af	0.005001984
74	0x3c505ec0	0.012717903
75	0x3a9d021f	0.0011978782
76	0x3aeb6ef7	0.0017962147
77	0x3bac7310	0.00526274
78	0x3c5ccdfb	0.013476844
79	0x3ca8bf11	0.02059892

exp_avg_sq f4 [5, 16]
0	0x3a7fa214	0.00097516296
1	0x3b1bdd74	0.002378312
2	0x3b853a76	0.004065807
3	0x3c2791df	0.0102276495
4	0x3ae906f3	0.001777856
5	0x3a8cd3fd	0.001074433
6	0x3a4f2f7d	0.00079034996
7	0x3a86d029	0.0010285425
8	0x39af9833	0.00033491998
9	0x3a0cb9af	0.0005368245
10	0x3b4097bb	0.0029387313
11	0x3a1713bb	0.0005763133
12	0x397689b1	0.00023511682
13	0x3a517751	0.0007990497
14	0x3b5270ff	0.0032110808
15	0x3b83c297	0.0040209997
16	0x3b27c33b	0.0025598544
17	0x3a39d431	0.0007088809
18	0x38d40d23	0.00010111395
19	0x3532d6b8	6.6622624e-07
20	0x392fe502	0.00016774613
21	0x37cc073a	2.432206e-05
22	0x3a149454	0.00056678546
23	0x3a370c72	0.00069827505
24	0x39947500	0.00028315932
25	0x39b2ea77	0.00034125496
26	0x3af2f0c3	0.0018534887
27	0x39f65d1f	0.00046990157
28	0x391fed32	0.00015251784
29	0x3a19d3ff	0.00058680767
30	0x37bdda05	2.2632079e-05
31	0x3a067bff	0.0005130171
32	0x3b52b6a3	0.0032152317
33	0x3b8cac8d	0.0042930306
34	0x3bb10625	0.005402344
35	0x39621a69	0.00021562878
36	0x3b00d61c	0.001965887
37	0x3952d69a	0.00020107106
38	0x3a19a8bd	0.0005861631
39	0x3a00ec66	0.00049180386
40	0x3968a4b7	0.00022186605
41	0x3964d400	0.0002182275
42	0x3ae06c17	0.0017122057
43	0x3964fe5e	0.00021838534
44	0x389395a6	7.0373804e-05
45	0x39a69361	0.00031771793
46	0x3b2d12b0	0.0026408844
47	0x3a72dcea	0.0009264486
48	0x3b32bfde	0.0027275006
49	0x3b36ae52	0.00278749
50	0x3b461eac	0.0030230684
51	0x397e1310	0.00024230429
52	0x3aa723c2	0.0012751746
53	0x391d5852	0.00015005589
54	0x3a045d6b	0.0005049321
55	0x39dde2df	0.00042321437
56	0x395d14e2	0.00021083982
57	0x394646d6	0.0001890914
58	0x3ab05bae	0.0013455057
59	0x395a771f	0.00020834476
60	0x3883426f	6.258941e-05
61	0x3999d0c5	0.0002933798
62	0x3ac58b46	0.0015071414
63	0x3a452bf2	0.0007521502
64	0x39c27b5a	0.00037094468
65	0x3b27eda8	0.0025623832
66	0x3bef2981	0.007298649
67	0x3c80f735	0.015742877
68	0x3b25ee72	0.0025319126
69	0x3ac39b2e	0.0014923566
70	0x39887773	0.00026028938
71	0x39a31596	0.00031105865
72	0x38996bfe	7.3157236e-05
73	0x392dd65d	0.00016578422
74	0x3a94254a	0.0011302617
75	0x38f94b5c	0.00011887282
76	0x382c5039	4.108271e-05
77	0x396a7b52	0.0002236192
78	0x3b9ec60b	0.004845386
79	0x3b57d780	0.0032934844

exp_avg f4 [5]
0	0x3be7ef9f	0.0070781256
1	0x3a78de48	0.00094935717
2	0xbbd08943	-0.006364019
3	0xbac4f645	-0.0015027007
4	0x3be588bd	0.007004826

exp_avg_sq f4 [5]
0	0x3a06ac99	0.00051374134
1	0x39b74edd	0.00034963238
2	0x3aa489d5	0.0012553284
3	0x3a59bd4d	0.0008306101
4	0x39e0e77b	0.00042897076
